model/model.tflite (tflite, 443592 bytes, 13 tensors)

VoiceClassifierCNN/output/MatMul f4 [1, 64]
00000000: b9a4 40be 8188 1f3e 98fe 2abd 4c01 1dbd
00000010: e678 08be 1c52 a1bc 869e 31be ba61 fd3d
00000020: 223f 5e3d eb16 d6bd 0ec0 0c3e ba67 25be
00000030: 5366 e43d bea3 0c3e 3d74 0bbe 4c19 173e
00000040: 4df0 873d dc85 8a3e 61f4 e93d 5a5b e9bd
00000050: 44fa 173e c539 e3bd dd2f 9abd 9795 87be
00000060: 1e66 453e 4a85 5cbe a3d2 373e fc8d 01bd
00000070: d59d ecbd 9509 f9bd abe3 79bd 67a6 b7bc
00000080: f99f 41bd 404a 95bd 02c3 dcbd 8eb9 a4bd
00000090: 3760 a4bc 5a41 17be e7f2 3d3e 7f6c 17be
000000a0: b3b6 233e a1e6 273e ed93 6d3e fe5c 193e
000000b0: 7bb6 673d a2dd 253e ba1f e8bd 924f 5abe
000000c0: 7759 f63d f8dd b8bd 9198 25bd 6438 02be
000000d0: 2ce5 433e 661c 343e af7c 613e ed92 51be
000000e0: 83bd 20be 454a c93d fbf0 253e efb3 bcbc
000000f0: 835a bfbd e22b 36be 2df4 0e3e 75cf 393e
-0.18812837 0.15579416 -0.041746706 -0.038331315 -0.13327369 -0.019692473 -0.17345628 0.123721555
0.054259427 -0.1045359 0.13745138 -0.1615285 0.11152329 0.13734338 -0.1361856 0.14755744
0.066376306 0.27055252 0.11423565 -0.11394377 0.14841563 -0.11095003 -0.075286604 -0.26481315
0.19277236 -0.2153522 0.17951445 -0.031629547 -0.115535416 -0.12160031 -0.061008137 -0.022418214
-0.047271702 -0.07289553 -0.10779382 -0.08043204 -0.02006541 -0.14771023 0.18549691 -0.14787482
0.15987663 0.16396572 0.2320096 0.1497688 0.05657051 0.16197827 -0.11334176 -0.21319416
0.12028783 -0.09026712 -0.0404287 -0.12716824 0.19130391 0.17588958 0.2202022 -0.20466204
-0.15697293 0.09828619 0.16205208 -0.023035018 -0.093434356 -0.17790177 0.13960333 0.18145545

VoiceClassifierCNN/dense1/BiasAdd/ReadVariableOp f4 [128]
00000000: cc05 4fbc 313d 1bbc f9ab 0cbc 6124 0d3e
00000010: 7b3a 043b 947c b4bc b7bc dcbb c42b dbbb
00000020: cf38 493e 1c98 fdbb 910a 1ebc ebb9 a4bb
00000030: 88ec 2bbc fd39 26bc 47c9 cbbc f8ef e3bc
00000040: e745 3abc 0000 0000 0000 0000 b503 1f3d
00000050: 0303 4bbc 93bd 0dbd e53e 1e3d 2c1d 3b3c
00000060: f637 e8bc 475b 82bc 6db2 313d d43b 2bbc
00000070: 0000 0000 3bec 9bbc 7f7a bfbc 3fa6 e43d
00000080: 5810 2e3b ca92 b03c 6cd8 c63c 2a05 a0bb
00000090: c50e cdbc 040d dbbc 345a 47bc df34 d93d
000000a0: 8edd a5bd 3909 c73c 0ca4 673c b502 c7bb
000000b0: e705 ed3d ad3c 25bd 9bf0 43bc 4496 9b3d
000000c0: b6ae 283e 590f b1bc ed9f 573d 3604 f5bc
000000d0: 8785 f3bc fdc7 dcbc 637d 0fbc a20c 96bc
000000e0: b61b 1cbd 4f16 d73d 237a 22bd b4c9 5bbc
000000f0: 959e cdbb 1273 7fbc 63d1 0dbd 21c3 5bbc
00000100: 0ae9 aabc 799d c4bb 2941 563d ae7a 3ebd
00000110: 170b 333d 2342 103e 5a89 eebb 39a8 193e
00000120: 560e bebb 6a83 febc 8225 9fbc ada0 413e
00000130: 7271 a83d a8b0 0f3e 1ca3 d73c d4b3 633d
00000140: 2677 a93d 7e1b 74bc 50ba d73d 9cc1 69bc
00000150: 7fc7 10bd ee49 c2bc abeb 9f3d b828 1fbd
00000160: 71a8 d1bc 7c51 92bd 902b babd faf4 d0bc
00000170: 14bf d7bc 6588 1e3d e4b7 02bc 81ad 2cbc
00000180: 3057 fabc 6808 1a3e ee31 ce3c 6f85 83bd
00000190: 77f3 f83d 2d39 93bc d267 95bc 8f22 81bc
000001a0: 3151 443d d532 aebc b64f 41bc 9434 03bc
000001b0: eed8 06bc 106d 56bd 7658 1abc 1111 6abc
000001c0: a629 30bd 0ff7 21bc 7162 9cbc f25d bdbc
000001d0: 295b adbc ecd0 e93b d785 a7bb e526 b7bb
000001e0: d5ea 2fbd 0e2d 98bb b02b 3dbc 5b43 393d
000001f0: d73c 54bc 1ffc ef3c f131 92bc 0056 fc3c
-0.012635659 -0.009475038 -0.008585923 0.13783409 0.0020176459 -0.02203206 -0.0067363637 -0.006688567
0.19650577 -0.00773908 -0.009646074 -0.005027046 -0.010493405 -0.010145661 -0.02487625 -0.027824387
-0.011369205 0.0 0.0 0.038821895 -0.012390855 -0.03460462 0.0386342 0.011420529
-0.028346997 -0.015912665 0.04338305 -0.010451276 0.0 -0.019033542 -0.02337384 0.111645214
0.0026560035 0.02155437 0.02427312 -0.004883428 -0.025031457 -0.026739605 -0.012167502 0.106057875
-0.08098899 0.02429639 0.014138233 -0.0060733208 0.115733914 -0.040341068 -0.01195922 0.0759702
0.16472897 -0.021613764 0.05264275 -0.029909234 -0.029726757 -0.02695083 -0.008757922 -0.01831657
-0.038112365 0.10502302 -0.03966726 -0.013414789 -0.006275008 -0.0155914 -0.034623515 -0.013413222
-0.020863075 -0.0060002175 0.052308235 -0.046503715 0.043711748 0.14087729 -0.007279557 0.15005578
-0.005800049 -0.031068522 -0.019427065 0.18908949 0.08224763 0.14032233 0.026322894 0.05559142
0.08274679 -0.014899133 0.10533583 -0.0142673515 -0.035346504 -0.023716893 0.07808622 -0.03885719
-0.025593014 -0.07144448 -0.0909034 -0.025507439 -0.02633623 0.038704295 -0.007978413 -0.010539413
-0.030559152 0.15042269 0.025170293 -0.06421935 0.12155812 -0.0179716 -0.018237982 -0.01576355
0.047928993 -0.021264473 -0.01179879 -0.008008141 -0.008230431 -0.052350104 -0.009420505 -0.0142862955
-0.04300847 -0.0098855635 -0.01908991 -0.023116086 -0.021161633 0.007135501 -0.0051123905 -0.0055893534
-0.042948563 -0.004644043 -0.01154606 0.04523025 -0.0129539585 0.029295025 -0.01784608 0.030802727

VoiceClassifierCNN/dense2/BiasAdd/ReadVariableOp f4 [64]
00000000: 75f1 8fbc 836c 39bc e0f5 47be ac26 23be
00000010: 4e65 d33d d775 17bd cd08 ff3d 4729 d23d
00000020: 2d4a 0f3b 0e21 d5bd 5084 1abc b564 de3d
00000030: 6c75 263d ff4f 9e3d 9470 21bd f6ce df3c
00000040: 103c 293d da33 1f3c cc0a e03d 15b6 293e
00000050: 2618 063d 85a9 4b3d 5b39 1e3d 8f43 0e3e
00000060: 987d e73d 1b34 b43d e696 173d c304 a7bd
00000070: 8831 1a3e 543c 053e 2d13 bebc 1e0d 63be
00000080: 862a 313e 699b 933d 2d8c 5dbd ce63 a7bd
00000090: e690 983d f14c 03be 957a 95bb 2593 2abe
000000a0: df06 853d 68b3 323d f0ae e93d 3cf8 143c
000000b0: 1ec2 033e 9710 a13d 3fb3 0c3e ea67 383e
000000c0: e173 2d3d 376e 1abe 2676 e9bd 5eee 233d
000000d0: 51d3 2bbc 82e0 69b9 fff6 103d 7a16 a33d
000000e0: 1de5 87bd bf8d a13d cce6 953d 1be2 d2bd
000000f0: 5a29 c0bd e66e 1d3e 0925 403d 9280 ca3c
-0.01757119 -0.011317375 -0.19527388 -0.15932721 0.10322057 -0.036977615 0.124528505 0.10261779
0.002186428 -0.10406695 -0.00943096 0.10859052 0.040639326 0.07730102 -0.039414003 0.027320366
0.041317046 0.009716952 0.10939559 0.16573365 0.032737873 0.049722213 0.038628917 0.13892959
0.11303252 0.08799001 0.037009142 -0.08155205 0.15057957 0.13011295 -0.023202503 -0.22172973
0.17301378 0.072073765 -0.05408876 -0.08173333 0.07449512 -0.1282232 -0.004561732 -0.16657694
0.06495451 0.043628126 0.1141032 0.009092387 0.12867019 0.078644924 0.13740252 0.1800839
0.04234684 -0.15081106 -0.11399488 0.040022247 -0.0104873935 -0.00022304247 0.035391804 0.079632714
-0.06635497 0.07888364 0.07319412 -0.102970324 -0.09382887 0.15374336 0.04691032 0.02471951

VoiceClassifierCNN/relu1/Relu;VoiceClassifierCNN/bn1/FusedBatchNormV3;VoiceClassifierCNN/conv1/BiasAdd/ReadVariableOp;VoiceClassifierCNN/conv1/BiasAdd;VoiceClassifierCNN/conv1/Conv2D f4 [32]
00000000: a1f4 0d3d 5a27 c53d 6dc4 a5bd bcba adbd
00000010: b478 243d 87f4 98bc 4070 b7bc 4085 e7bd
00000020: 176a a63d f887 013d a727 02be e83a 30bd
00000030: c8fa 1cbd 3fd7 09be 8508 29be 7e47 43be
00000040: 3c53 553d c8fb d8bd 3eb7 21be 4e48 d0bd
00000050: 9c93 e1bd 64c6 babd 80fa ac3b 7a45 27be
00000060: ec41 e1bd c629 793d a643 103d e6e7 e1bd
00000070: 1cd5 9fbd 9297 d13d 0331 7e3d 2cdd 9dbd
0.034657124 0.09626646 -0.08094106 -0.084828824 0.040154174 -0.018671287 -0.022392392 -0.11304712
0.08125704 0.03162381 -0.12710439 -0.043024927 -0.0383251 -0.13461016 -0.16507156 -0.19070241
0.05208133 -0.105948985 -0.15792558 -0.10170041 -0.110144824 -0.09119871 0.0052788854 -0.16335097
-0.10998902 0.060830854 0.035220765 -0.11030559 -0.07804319 0.10233988 0.06205846 -0.07708201

VoiceClassifierCNN/relu2/Relu;VoiceClassifierCNN/bn2/FusedBatchNormV3;VoiceClassifierCNN/conv2/BiasAdd/ReadVariableOp;VoiceClassifierCNN/conv2/BiasAdd;VoiceClassifierCNN/conv2/Conv2D f4 [64]
00000000: beed bf3e cfeb dd3e df12 2d3e 82d0 153e
00000010: 9f29 3e3f 3a0b 4f3e e55d a1be c347 e6be
00000020: 0699 10be 8b14 ec3d 7027 6e3e 7528 cb3e
00000030: 16d0 bc3e 9173 c73e 6918 d2be d8c5 e53e
00000040: f357 293f 32fc 203f 459f 9c3e c5f4 6f3e
00000050: 8928 2b3e 93d8 ca3e 174f a5be 3d73 d83e
00000060: ccd0 d43e 7356 d23e 23dc da3e 28b8 48bf
00000070: 6d91 d63e c4cc dc3e 7c04 a13e 74f3 c23e
00000080: d16c 97be 116c 9e3e e9d0 ba3e c97e d83e
00000090: 768f c43e 359e e43e 3e1c 7f3d 967b 203f
000000a0: 5b6b fe3d ee19 103f aa14 fcbe c702 e4bc
000000b0: e1ad f93d f377 743e 8707 f43e b71c a03d
000000c0: 7334 e53e 43f5 bb3e cd7f 873e 32d7 043f
000000d0: 73c3 f33c 88bf b53e 1282 e03e 1d1a c53e
000000e0: 518d 9d3e 9a9d c23e ed5a be3e 3889 a43e
000000f0: 1421 b83e 6f1b dd3e 178e 1c3f 03e3 a6be
0.3748607 0.4334397 0.1690173 0.1463032 0.7428226 0.20219126 -0.31516948 -0.44976625
-0.14120874 0.11527356 0.23257232 0.39679304 0.36877507 0.38955358 -0.41034248 0.44877505
0.66149825 0.6288482 0.30590263 0.23433216 0.16714682 0.39618358 -0.32286903 0.4227542
0.4156555 0.4108158 0.42746076 -0.78406 0.41907826 0.43124974 0.31448734 0.38076365
-0.29575208 0.30941823 0.3648751 0.4228423 0.38390702 0.44651952 0.062282793 0.6268858
0.1242282 0.56289566 -0.49234515 -0.027833356 0.12191368 0.23873882 0.47661993 0.07817977
0.44766578 0.36710557 0.26464692 0.5189086 0.029756283 0.3549769 0.43849236 0.38496485
0.30771878 0.38010865 0.37178746 0.3213594 0.35962737 0.43184993 0.6115431 -0.3259507

VoiceClassifierCNN/relu3/Relu;VoiceClassifierCNN/bn3/FusedBatchNormV3;VoiceClassifierCNN/conv3/BiasAdd/ReadVariableOp;VoiceClassifierCNN/conv3/BiasAdd;VoiceClassifierCNN/conv3/Conv2D f4 [128]
00000000: cb64 e73d 03e3 c3bf 6c33 52bf e798 8a3f
00000010: a618 6bbf 343b 8c3f 8ea0 25bf c869 0d3f
00000020: eaca 9d3e 68b9 383f a0f0 25bc f55c 113e
00000030: fb10 f8bd 7069 4bbf a7f7 493d ddf1 c5bf
00000040: e480 913f 4685 4c3f 6c65 c03e 6646 673f
00000050: 4fbd 073f 2ddf 92bf 8248 493f 20d7 613f
00000060: 2865 01bd 505c d7bf b557 253f 43d6 513b
00000070: 767c 2fc0 35f4 843f bde2 bc3e b024 963f
00000080: 6861 983f cbeb 593f afaf 1640 7bf7 68bf
00000090: 3217 8fbf ece3 6e3f f8ed 4bbf 134e 4ebf
000000a0: 09e3 cd3f 5dbd 843f 7b0d 7b3e 0526 7c3e
000000b0: 5e14 b1bf fffe 653c fd21 483f 2b26 b13f
000000c0: 094a 313f 648b 99bf 4663 c53f 6dfa 483f
000000d0: e077 d7be ee93 443f d411 583f d42e 63be
000000e0: 8a36 523f bbec 9e3f e39e 483f 34e9 e63e
000000f0: 5bf7 7bbf e7a5 ae3e de6a d8bd 776c 933f
00000100: e5c4 2a3f 1db1 383f 9812 953f 3cd6 0f40
00000110: b89f 0f3f 7226 a53f c43a 47bf 1f3f 883f
00000120: 05da 013f a634 c73d 3af2 33bf a940 95bf
00000130: 57f0 793f 2253 653e 309e 9a3e 38b3 523f
00000140: 3e6f 123f 2cfc 5ebd 179f b03e b512 0f3d
00000150: 54a2 563f 6297 25bf 44e5 af3f d55a 023d
00000160: 93b1 253f 5064 a93e 8ae9 43bf c012 38be
00000170: a99a 23be d88b c03f 38ba 9b3f 52b5 813e
00000180: c010 843f cb0c 99be 8926 a43f 1dbe 513f
00000190: 702f cebe 6df2 2e3e d577 8e3f 8167 c6bf
000001a0: 2d53 903f bf7f 7cbe e0d7 503f 0258 18bf
000001b0: 415d 913f a90b 04bf b61e 673f 1d8b a93f
000001c0: ce52 3b3f 58f6 b63e 1e85 9d3f f39f 953f
000001d0: 0c48 013f 209d cd3f 1a9a 593e df8d d9be
000001e0: c1a1 153f 5a3c 42bf d78d bcbf 8e67 c9be
000001f0: 26e9 c43e c4d1 8f3f f8a8 3cbf 9ae6 bcbe
0.112985216 -1.5303653 -0.82109714 1.0827912 -0.91834486 1.0955567 -0.6469811 0.55239534
0.30818874 0.7215791 -0.01012817 0.14195617 -0.12112614 -0.7945776 0.049308445 -1.5464436
1.1367459 0.7989086 0.3757738 0.90341794 0.53023237 -1.1474358 0.78626263 0.8821888
-0.03159061 -1.6825047 0.64586955 0.003201858 -2.7419715 1.0387026 0.36891738 1.1729946
1.1904726 0.85125417 2.3544729 -0.91002625 -1.1178954 0.9331653 -0.79659986 -0.8058788
1.6084911 1.0370289 0.24516861 0.24623878 -1.383434 0.014037847 0.7817686 1.3839773
0.69253594 -1.1995664 1.5420921 0.7850712 -0.42083645 0.7678822 0.84402204 -0.22185832
0.8211447 1.2415994 0.7836744 0.45099795 -0.9842431 0.34110948 -0.10567258 1.1517476
0.6670669 0.72145253 1.1646299 2.2474508 0.56103086 1.2902358 -0.77824044 1.0644263
0.50723296 0.09726839 -0.70291483 -1.1660358 0.97632354 0.22394994 0.30198812 0.82304716
0.5720099 -0.05443971 0.34496376 0.03492995 0.83841443 -0.64684117 1.3741841 0.031824905
0.6472408 0.33084345 -0.7652823 -0.17975903 -0.15976967 1.5042677 1.2166204 0.2533365
1.0317612 -0.29892573 1.282426 0.81930715 -0.40270567 0.17084666 1.113032 -1.5500337
1.1275383 -0.24658106 0.815794 -0.5950929 1.1356584 -0.5158029 0.90281236 1.3245579
0.73173225 0.3573482 1.2306249 1.1689438 0.5050056 1.6063576 0.21250191 -0.42491052
0.5844994 -0.7587334 -1.4730786 -0.39336818 0.38459128 1.123589 -0.73695326 -0.36894685

VoiceClassifierCNN/relu4/Relu;VoiceClassifierCNN/bn4/FusedBatchNormV3;VoiceClassifierCNN/conv4/BiasAdd/ReadVariableOp;VoiceClassifierCNN/conv4/BiasAdd;VoiceClassifierCNN/conv4/Conv2D f4 [256]
00000000: 50c2 f1be fbe4 f9be a7dd 2bbf c0f8 0b3f
00000010: 7025 04bf 03b5 b7bf 8aed dabe a1ad c53e
00000020: 1310 7abf 3791 43bf 10dd e8bc 9f46 313e
00000030: 8456 813c 2be5 a3be e2d2 293f 9171 0dbd
00000040: 8874 04bf d62a 80bf 3984 14be f8ca 113f
00000050: a2e6 0ebf ef31 4abf 870a f5be 45a9 13be
00000060: e713 fe3e 3d5b 28bf 43e3 213f 836f 02bf
00000070: 9f70 08bf a699 0dbf 0f63 f3bd 1d83 883e
00000080: ac40 77bf 196e 44bf 3460 56be 8eef 85bf
00000090: 1e5b 223f e5e8 f1bf c3d0 f73e 77d8 1d3c
000000a0: 887f 9ebf 5291 7a3d 1d88 80bf eab6 1abf
000000b0: 6862 05bf 86af 65be 5d99 57bf 9959 10bf
000000c0: c8c6 503f baf1 a8bd 7f54 b7be 191c bbbe
000000d0: 810e 28bd 0f45 09bf 822b 9b3e d496 373f
000000e0: ae2d 2a3f 2537 fd3c 5587 d23e 7ee4 46be
000000f0: e694 acbe c1a2 53be aec9 abbd 4896 5bbf
00000100: 0bfd c93e 6287 debe d4a2 a93e 3d1f babe
00000110: 4047 4d3e 2c3c 2fbf 3411 1cbc 3561 a4be
00000120: b5e5 58bf c0b1 edbe a8ef 3ebf a446 c3bd
00000130: 7191 17bf 4c37 efbc bb8a 86be 9324 483f
00000140: 3e6d 84be e626 cabd 59da e7bf be54 84be
00000150: 2907 24bf ce6e 4d3d bfb2 4abf a7f8 27bf
00000160: 0812 adbe f0e3 8cbe aa45 3cbe 57c5 c4be
00000170: 5737 26bd f0aa 87be 6ca6 0d3f cbdf cdbe
00000180: c8d1 bcbe 31d7 8cbe ca42 fabe 990c 15be
00000190: 4cac a5be 3981 e8be 4def 6f3e e04e b8be
000001a0: 29ea 5cbe ea97 1a3d e4c4 b2be 3907 cbbe
000001b0: a16e 4fbe 17bc f4be 69bb df3d a71c 1dbf
000001c0: 1f70 45bf f2f9 18bf 90c7 72bf 8a81 e3be
000001d0: afb9 66bf 9b4c dd3c f685 dcbd dfb2 063e
000001e0: 0bb7 96be cd9b 9cbf 79ec ddbe c713 40be
000001f0: 3f3d 79be 96d9 123f 02ef e9bc bccc 01bf
00000200: 6a5a 60bf 5964 3bbf f341 70be 9501 34bf
00000210: d983 173f 7e40 8ebe 6c3f c2bf 347f 6e3d
00000220: 6d5e 163f 4a69 abbe 8b0e 93be 20fa 3cbf
00000230: 5c52 10be 658e 09bf 97ef 463f 8430 d2be
00000240: cddb 5bbf f62b f0be bd05 fcbd cf16 8bbf
00000250: fd41 90be 013d 1abe f6c2 8bbe 7f82 a4bf
00000260: 5f35 6abe 7a1e 31be bde0 15bf d318 17bf
00000270: f529 1fbe 469e e8be ef95 7bbf b2b7 143f
00000280: 892e adbe bdfb bebd 6b13 03be bc85 763f
00000290: b9c8 c1be 67dc 4fbf 5b8f 50bf e265 76bf
000002a0: 2fd6 4ebe 0b14 a6bd b090 45bf 7299 873e
000002b0: 8196 00bd c3da 9a3e 36ac f3bd b1fc 473f
000002c0: 445c c0be 70a6 ad3d 6d20 353e f2e2 c93e
000002d0: 82e5 0ebf 15ad 0cbe 2bfd 97be 6717 7cbe
000002e0: db95 77bf 5fe8 45bf e96d be3e db09 7fbe
000002f0: db49 25bf 22c4 2dbf f4fa d03d 40b5 efbe
00000300: b98b 23be 782e 87bf e6a9 4bbe 8dd6 403d
00000310: 3238 fbbe 092f a3be 8aec b6be 8633 4cbe
00000320: b702 0b3b dc2c 92bf d7a3 003f 4f19 b53e
00000330: bf62 a8be a6f0 81be 57f4 a0bf 2903 00bf
00000340: c6b7 cbbe 956e 85bf f563 02bf 1d76 93be
00000350: d843 0dbf 7433 a0be 6be2 04bf 9245 50bf
00000360: ca52 973e ab97 b5be 51d0 9fbf 788a d5be
00000370: 1447 04bf 7c41 d3be b8bc 69be 463f 59bf
00000380: 60b4 b6be b6e7 f1be 6ae5 fcbe 7a21 03bf
00000390: cbde e03e 7957 e6be 4e7e 88be b2da a83e
000003a0: fea7 2cbf f299 e33e ef32 d6be 433a 3ebf
000003b0: a648 06be 5f7e 2d3f c2e9 f6be 679e 11be
000003c0: 2f5f 04bf 8f48 81be 3bef f8be 23d0 efbe
000003d0: 1343 f1bf 7e5b acbf 37e5 9c3e 46ca 49be
000003e0: ea0a 3b3e 1de8 09be f5d9 a3be 480c 513f
000003f0: f436 5e3e ced7 7c3e ce1f 7dbe 5d6c f63c
-0.4721856 -0.4880751 -0.6713509 0.5467644 -0.51619625 -1.4352115 -0.42759353 0.3860903
-0.9768078 -0.76393455 -0.028425723 0.17312096 0.015788324 -0.3201078 0.66337407 -0.034532133
-0.5174031 -1.0013072 -0.14503564 0.5695033 -0.5582067 -0.7898244 -0.47859594 -0.1442004
0.4962456 -0.6576422 0.632374 -0.50951403 -0.53296846 -0.55312574 -0.11884128 0.26662531
-0.96583056 -0.76730496 -0.20935136 -1.0463731 0.63420284 -1.8899199 0.4840146 0.009634129
-1.238267 0.061173744 -1.0041538 -0.60435355 -0.5210328 -0.22430238 -0.8421839 -0.56386715
0.81553316 -0.08249231 -0.35806653 -0.36544874 -0.041029457 -0.53621 0.3030663 0.7171452
0.6647595 0.030910084 0.41118875 -0.194231 -0.3370735 -0.20667554 -0.08388077 -0.85776186
0.3945087 -0.43462664 0.3313204 -0.36351958 0.20046711 -0.6845119 -0.009525586 -0.32105413
-0.84725505 -0.46424675 -0.74584436 -0.09534958 -0.592063 -0.029201172 -0.26277718 0.7818081
-0.25864595 -0.098707005 -1.811351 -0.25845903 -0.64073426 0.0501545 -0.79178995 -0.6561379
-0.3380282 -0.27517653 -0.1838595 -0.38431808 -0.04058012 -0.26497602 0.55332065 -0.40209803
-0.368788 -0.27507928 -0.4887908 -0.14555587 -0.32358015 -0.4541109 0.2343113 -0.35997677
-0.215737 0.037742533 -0.3491584 -0.39653948 -0.20257045 -0.4779975 0.109244175 -0.61371845
-0.7712421 -0.59756386 -0.9483576 -0.44434768 -0.9012708 0.027014067 -0.107677385 0.13154171
-0.29436526 -1.2235047 -0.43344477 -0.18757544 -0.2433977 0.5736326 -0.02855635 -0.50703025
-0.8763796 -0.73199993 -0.23462658 -0.70314914 0.5918556 -0.2778358 -1.5175605 0.05822678
0.5873783 -0.33478767 -0.28722033 -0.7381916 -0.14093918 -0.537329 0.77709335 -0.4105264
-0.85882264 -0.4690854 -0.12305782 -1.0866336 -0.28175345 -0.15062334 -0.2729718 -1.2852324
-0.22871922 -0.17296782 -0.5854605 -0.59022254 -0.15543349 -0.45433253 -0.98275656 0.58092797
-0.33824566 -0.09325359 -0.12800376 0.9629781 -0.37848452 -0.8119568 -0.81468743 -0.9624921
-0.20198892 -0.08109292 -0.771739 0.26484257 -0.03139353 0.30245027 -0.11898081 0.7811995
-0.37570393 0.08479011 0.1768815 0.39430958 -0.5581895 -0.137379 -0.2968534 -0.24618302
-0.96713036 -0.77307695 0.3719323 -0.24906103 -0.6456582 -0.678774 0.102041155 -0.4681797
-0.15971269 -1.0561056 -0.1988903 0.04707961 -0.4906631 -0.31871822 -0.3572734 -0.1994153
0.0021211335 -1.141994 0.5025 0.3537087 -0.32887837 -0.25378913 -1.2574567 -0.5000482
-0.39788646 -1.0424372 -0.5093377 -0.2880105 -0.55181646 -0.31289256 -0.51907986 -0.81356156
0.2955535 -0.35467276 -1.2485448 -0.41707206 -0.51670957 -0.41260898 -0.22825897 -0.8486217
-0.3568449 -0.47247094 -0.4939378 -0.51222956 0.43919978 -0.4498861 -0.26658863 0.3297935
-0.67443836 0.44453388 -0.41835734 -0.7430765 -0.1311365 0.6777095 -0.48225218 -0.14220582
-0.5170774 -0.2525067 -0.48620018 -0.46838483 -1.8848594 -1.3465421 0.30643627 -0.19706067
0.18265882 -0.1346745 -0.32002226 0.81659365 0.2170065 0.24691698 -0.24719164 0.030080969

VoiceClassifierCNN/conv1/Conv2D f4 [32, 3, 3, 1]
00000000: 8b30 c03e 70b7 bd3e 5671 a03d a6ca 23be
00000010: 92b0 ebbd 99aa b3bd 6a09 833e 2e7d 163e
00000020: 780d b33d 6485 a33e a807 353e 410a 88be
00000030: bfac ef3e 5ccc f63e b0d7 d03e e06e 3cbe
00000040: 5de7 92be 2b10 c8be b419 f8bd 544c 28be
00000050: 68e8 d0bd d506 883e 164d 3e3e 8303 033e
00000060: 6acd d0be f4ea bdbe 62d7 d0be 74bc 4cbe
00000070: d7ca 65bd e964 dfbe 1461 1cbe 4279 23be
00000080: 3e9a d6be 002a b93d fffd 5ebd e389 dbbd
00000090: 5d6f 4f3e d232 273e e74b c63e 2996 b6bd
000000a0: ac02 53be c8df 99be ad7b af3d 1f55 0c3e
000000b0: d438 6e3e f439 ebbc 0bec c03d af41 c8bd
000000c0: fe90 2abe 1e8e adbe ecb8 05bf 3a2f a9bd
000000d0: 07cb aebc 5ac4 f33b 2d19 e6be cbdf ebbe
000000e0: 2b42 123e 0bdb 063e fb31 ed3d c292 3a3e
000000f0: 63a3 593f 5ee3 533f f1f7 90be 8401 35be
00000100: df14 83bd 075d 27be c021 983e 34c7 e8bc
00000110: 323b 833c 957f 21bf 74fa 77be 38f2 1ebf
00000120: b1e3 a8be ebd7 043f 96bb ea3e 37d0 193f
00000130: 9c23 f73e c915 4a3d 84c5 85be 5f1f 07be
00000140: 0e6f 2dbf df6a 163f 11e0 043f 289c e3bd
00000150: f675 4bbe d41d 1f3f f3c9 8c3c 4799 c3be
00000160: 1cc3 07bf 9e88 ce3e ec7d 173e 1256 b5be
00000170: 6a6a 0fbf 2efc 123f c318 243f 3d23 63bf
00000180: 35b9 d1bd 4bd6 693f c7c9 383f 9469 d83d
00000190: 0905 9abd ffce 143d 85c8 dbbe 3b9a dcbe
000001a0: a9cb 16be 16ec 2d3d 82f1 db3d 84bf 9a3e
000001b0: dcb8 d3be b64a 12bd 4f2c bbbe 14cb 223f
000001c0: ae25 fdbe 8d7a 613e 3498 de3e d4b0 603f
000001d0: 8d49 b13d ae66 d23d 6f8e 63bd 2c96 9c3e
000001e0: 03ba 19bf 4dfa 93be d440 29bd 20dd 93be
000001f0: 427f 43be cb3f 5ebe d9a1 9b3d 2362 0c3e
00000200: 03e2 a23e 1f16 30be d223 813e dee5 fd3d
00000210: 7b04 91bf b762 7dbf 21a4 30bf 8e2b 213f
00000220: 4c7d 933e 41d6 c2bf c40f 2d3e ae96 6d3e
00000230: 126b 85bf e141 583f ab74 813d d9c0 5bbf
00000240: 7100 083e 6017 5e3e 0aaa 103f 55d7 063e
00000250: c054 d5bd fff5 463e 84f3 613e a512 ba3e
00000260: 91c3 083f ea4e ce3f cd33 c1be 18cf 74bf
00000270: 3b69 763f 8bd9 a63e dda9 a5be a8d1 fe3d
00000280: b2c9 753f f540 b5be ddb0 c83f 5dd7 3abe
00000290: c277 b1bf 30dc a73e 24e3 813f d805 8bbf
000002a0: b5d4 573f d5c2 21bf 8b04 8abf 897e e4bc
000002b0: f3f9 a4be 515e 06be 24c9 01bd a9fb 11bf
000002c0: 29be a7be 358b bebe e267 74be 95a0 bd3c
000002d0: 06ea edbd ca63 adbe 73d1 28be 951f 2abe
000002e0: 9044 f0be f19c 92be d1c0 4cbe c73b 6bbe
000002f0: 2d6c f13d 8574 653e 75c1 a7be 1e4f 963c
00000300: c02e 05be 9719 bfbe b94c 04bf a472 52bd
00000310: 811c 04bf a0ee abbe 9b7b 623b 66dd a7be
00000320: 8d60 8dbe a0b6 f53e 1694 3bbe 94fe 4e3e
00000330: 4bfc 41be 7b14 a33f a588 21be 3721 413a
00000340: ef5b c9be b035 51be 1fe4 b7bd d57e 233e
00000350: 2071 52be 5fcf d83e a627 0b3f 288e b43e
00000360: 8cb4 2fbe f9de 89be 1dec b7be 66f9 d2bd
00000370: cbaa 0abe 35c0 d9be 520d 85be 93a2 bcbe
00000380: 3dfa e6be 3a8c b53e 12fe c03d 65cb 593e
00000390: d0fb 8ebc b30d c2be ff1e 28be 2f32 ff3b
000003a0: d94e 09be e610 593c 9437 883e 3d57 c13e
000003b0: e3a2 813e 5f3a 05bd d845 9f3d b9e4 f8bd
000003c0: c55d da3e 14c2 843e fdc5 cc3d a7d4 853f
000003d0: 544f 2e3e c7c3 45bf 4155 f23f 0c79 b13e
000003e0: f82d 0ac0 f519 ea3f df00 75be 0ce2 c4bf
000003f0: ddd2 12bd 15b5 96bd cd82 95be 4708 633e
0.37537035 0.37054014 0.07834117 -0.15995273 -0.115082875 -0.08772773 0.2559312 0.1469619
0.08742803 0.31937706 0.17678702 -0.26570323 0.46811482 0.4820279 0.40789557 -0.1840167
-0.2869214 -0.39074835 -0.121142775 -0.16435367 -0.10200578 0.26567712 0.18584093 0.12794308
-0.40781718 -0.37093318 -0.40789324 -0.19993764 -0.056101646 -0.43631676 -0.15271407 -0.15964225
-0.41914552 0.09041214 -0.05444145 -0.10719659 0.20257325 0.1632798 0.38729784 -0.089153595
-0.20606488 -0.30053544 0.08568511 0.13704346 0.23263866 -0.028714158 0.094200216 -0.09778153
-0.16656873 -0.3389749 -0.52235293 -0.08260961 -0.021337045 0.0074391784 -0.44941083 -0.46069178
0.14283054 0.13169496 0.11581799 0.18220046 0.85014933 0.8276881 -0.28314164 -0.1767636
-0.06400465 -0.16344081 0.2971325 -0.0284153 0.016019437 -0.630853 -0.24216634 -0.62088346
-0.32986215 0.51891965 0.45846242 0.60083336 0.48269355 0.049337182 -0.26127255 -0.13195561
-0.6774758 0.5875682 0.519044 -0.11113769 -0.19869217 0.6215489 0.01718614 -0.3820288
-0.5303209 0.40338606 0.14794129 -0.3541723 -0.5602175 0.57416046 0.64100283 -0.88725644
-0.102404036 0.9134261 0.7218289 0.105670124 -0.07520492 0.03633022 -0.42926422 -0.43086419
-0.14726128 0.042461477 0.10739423 0.3022424 -0.41351974 -0.03571578 -0.36557242 0.6359112
-0.4944281 0.22019406 0.43475497 0.8776982 0.08656607 0.10273491 -0.055555757 0.30583322
-0.60049456 -0.28901902 -0.04132159 -0.28879642 -0.19091514 -0.21704023 0.07599229 0.13709311
0.31813058 -0.17195939 0.2522264 0.12397359 -1.1329492 -0.9897875 -0.6900044 0.62957084
0.2880653 -1.5221635 0.16900545 0.23202011 -1.04233 0.84475523 0.06321081 -0.8584114
0.13281418 0.21688604 0.5650946 0.1316808 -0.104165554 0.19429778 0.2206555 0.3634235
0.5342341 1.6117833 -0.37734833 -0.956285 0.9625432 0.32587847 -0.32356158 0.124423325
0.9601089 -0.3540112 1.5678974 -0.18246217 -1.3864672 0.32785177 1.0147443 -1.0861158
0.8430894 -0.63187915 -1.0782636 -0.027892368 -0.32221946 -0.13121916 -0.031685963 -0.5702463
-0.32762268 -0.37215582 -0.23867753 0.02314786 -0.11616902 -0.33865196 -0.16486149 -0.1661361
-0.4692731 -0.28635362 -0.19995429 -0.22972022 0.11788211 0.2240773 -0.32764784 0.018348273
-0.13006115 -0.3732421 -0.5167957 -0.05137886 -0.51605994 -0.33580494 0.0034558538 -0.327861
-0.27612725 0.47990894 -0.18318209 0.20214301 -0.18943898 1.2740625 -0.15774782 0.0007367315
-0.39327952 -0.20430636 -0.089790575 0.15966351 -0.20550966 0.42345712 0.54357374 0.35264707
-0.17158717 -0.26927927 -0.35922328 -0.10301475 -0.13541715 -0.42529455 -0.25986725 -0.36842784
-0.45112792 0.35458547 0.0942346 0.21268995 -0.017454058 -0.37901077 -0.16418074 0.007787965
-0.13408984 0.013248658 0.26604903 0.3776187 0.25319585 -0.03252637 0.077769935 -0.121530004
0.42649665 0.2592932 0.09998701 1.0455521 0.17022449 -0.7725186 1.8932267 0.34662664
-2.1590557 1.8289171 -0.23926114 -1.5381484 -0.035845626 -0.073587574 -0.29201356 0.22171126

VoiceClassifierCNN/conv2/Conv2D i1 [64, 3, 3, 32]
00000000: fb32 08e4 02e3 28eb 17f7 ffee f1d8 19ec
00000010: 031d 23e4 d9d6 0b26 eff3 1127 f023 fcf8
00000020: 0524 07d9 0f15 c0ec 231b d0f2 acea 2acb
00000030: 02fe f5f5 d6e6 b808 ecfb 06e7 e71c 01d2
00000040: f52b dfe5 f111 dfed 591e dde9 cce3 2bda
00000050: 14f5 07e7 eee7 0213 e9e9 00ed da0e 34f0
00000060: 15fb 2ee6 0813 0743 1630 ebf8 fe20 2407
00000070: d6d1 4238 1b13 edd2 1603 d4ec 350e 2e2e
00000080: fff2 3018 ee10 b904 330e ed02 0309 12e7
00000090: ce92 1cfa 0902 e6e0 0922 d4b5 1017 f001
000000a0: 0ff0 1b15 0b0d 0231 ed0c d7e0 ef1d 1e14
000000b0: d4a6 3128 f306 fe0a 1d12 f4d5 34fc 163d
000000c0: ac22 2100 d0bf 6dfc 1df7 3e0f 5b88 def2
000000d0: d710 e2f2 01ac 7f61 e38b bfec 14f3 f2b6
000000e0: c2f7 0afe c3ca 2107 36dc 2cfe 2ea4 e8f7
000000f0: c7c7 e9d2 e4c6 2618 cba6 cedf e2e7 f2a8
-5 50 8 -28 2 -29 40 -21
23 -9 -1 -18 -15 -40 25 -20
3 29 35 -28 -39 -42 11 38
-17 -13 17 39 -16 35 -4 -8
5 36 7 -39 15 21 -64 -20
35 27 -48 -14 -84 -22 42 -53
2 -2 -11 -11 -42 -26 -72 8
-20 -5 6 -25 -25 28 1 -46
-11 43 -33 -27 -15 17 -33 -19
89 30 -35 -23 -52 -29 43 -38
20 -11 7 -25 -18 -25 2 19
-23 -23 0 -19 -38 14 52 -16
21 -5 46 -26 8 19 7 67
22 48 -21 -8 -2 32 36 7
-42 -47 66 56 27 19 -19 -46
22 3 -44 -20 53 14 46 46
-1 -14 48 24 -18 16 -71 4
51 14 -19 2 3 9 18 -25
-50 -110 28 -6 9 2 -26 -32
9 34 -44 -75 16 23 -16 1
15 -16 27 21 11 13 2 49
-19 12 -41 -32 -17 29 30 20
-44 -90 49 40 -13 6 -2 10
29 18 -12 -43 52 -4 22 61
-84 34 33 0 -48 -65 109 -4
29 -9 62 15 91 -120 -34 -14
-41 16 -30 -14 1 -84 127 97
-29 -117 -65 -20 20 -13 -14 -74
-62 -9 10 -2 -61 -54 33 7
54 -36 44 -2 46 -92 -24 -9
-57 -57 -23 -46 -28 -58 38 24
-53 -90 -50 -33 -30 -25 -14 -88

VoiceClassifierCNN/conv3/Conv2D i1 [128, 3, 3, 64]
00000000: 04e9 07d9 000b e70a fbf6 ec0c e5d7 effd
00000010: f3fb 1524 ec10 f9cc e72e e61c 26d7 23e4
00000020: f21d 0af2 0206 0ef6 d3d5 11f1 292b d410
00000030: d8df fdef 050f f9f7 d514 fffc 22da d8fd
00000040: d3d6 efea de13 ed07 17e2 e1f2 16ec 160f
00000050: f303 4f1d f4ff 2de0 e505 e718 1021 fec9
00000060: 02fa e90e e5f2 08de e7db 0512 fae8 c5ed
00000070: f517 fae0 19e7 e817 f3fc f3ef da06 e80f
00000080: df07 2afe f92b e904 0410 f8dd 0214 08f1
00000090: fb07 6b39 ea2e 2dd8 f71b f91e 14fd 1ff0
000000a0: 0700 f62f e107 0415 f0ed 1204 1c13 e6e0
000000b0: de10 0200 211f 1510 e83b fde5 070f 02f4
000000c0: eed5 e9f0 07d7 1012 df02 dfe1 ecaf 1eef
000000d0: ece5 e0ec f9d9 e6f5 c524 d6e9 22b0 0aea
000000e0: 20fd 06f2 1c1d 0ff1 12eb e915 24fa df28
000000f0: 19da d8ef e4dc 0fe2 bf02 d6d2 09df 0d20
4 -23 7 -39 0 11 -25 10
-5 -10 -20 12 -27 -41 -17 -3
-13 -5 21 36 -20 16 -7 -52
-25 46 -26 28 38 -41 35 -28
-14 29 10 -14 2 6 14 -10
-45 -43 17 -15 41 43 -44 16
-40 -33 -3 -17 5 15 -7 -9
-43 20 -1 -4 34 -38 -40 -3
-45 -42 -17 -22 -34 19 -19 7
23 -30 -31 -14 22 -20 22 15
-13 3 79 29 -12 -1 45 -32
-27 5 -25 24 16 33 -2 -55
2 -6 -23 14 -27 -14 8 -34
-25 -37 5 18 -6 -24 -59 -19
-11 23 -6 -32 25 -25 -24 23
-13 -4 -13 -17 -38 6 -24 15
-33 7 42 -2 -7 43 -23 4
4 16 -8 -35 2 20 8 -15
-5 7 107 57 -22 46 45 -40
-9 27 -7 30 20 -3 31 -16
7 0 -10 47 -31 7 4 21
-16 -19 18 4 28 19 -26 -32
-34 16 2 0 33 31 21 16
-24 59 -3 -27 7 15 2 -12
-18 -43 -23 -16 7 -41 16 18
-33 2 -33 -31 -20 -81 30 -17
-20 -27 -32 -20 -7 -39 -26 -11
-59 36 -42 -23 34 -80 10 -22
32 -3 6 -14 28 29 15 -15
18 -21 -23 21 36 -6 -33 40
25 -38 -40 -17 -28 -36 15 -30
-65 2 -42 -46 9 -33 13 32

VoiceClassifierCNN/conv4/Conv2D i1 [256, 3, 3, 128]
00000000: f4f7 205b 0dd1 c737 ffd5 e9f8 02c3 f3ed
00000010: 060b 0a2a 3a03 252f 01ed 30c6 ced8 23f4
00000020: 10fd 06ba 2216 f5f6 f818 0216 f5f8 1cf4
00000030: 310a 3214 0815 03ec 4737 0ced ee1f af10
00000040: 033f 21e1 0fe2 fdd9 080d fbc6 d304 d700
00000050: feea 2a04 f9ef 2de7 cf02 f2ed fce8 24fb
00000060: 4c06 f813 0017 fce9 300b fbe8 05f4 f528
00000070: 0d0a 18f6 ffed f6fe 04f6 07da ff0b e80a
00000080: f5e3 236c 07d9 cd52 0fb7 d8f6 f4c5 ebd5
00000090: fd07 003d 48f4 4d22 f1f2 3bd2 c0d3 2cfe
000000a0: 17f5 23be 1202 f4f6 120c fc27 f502 3202
000000b0: 20ff 2518 281a 0ffe 3b26 0ae8 ef1c 921f
000000c0: db44 33e1 0ff4 ecc1 0b09 f1c6 cdf9 e719
000000d0: 08d5 10f1 eed3 33dd c9fd dde8 f6e0 47fc
000000e0: 51f5 ecfb ea0e 15e4 14f4 0fd8 0ad6 eb26
000000f0: 0112 1100 0900 fb01 15e6 fec6 fc14 e40e
-12 -9 32 91 13 -47 -57 55
-1 -43 -23 -8 2 -61 -13 -19
6 11 10 42 58 3 37 47
1 -19 48 -58 -50 -40 35 -12
16 -3 6 -70 34 22 -11 -10
-8 24 2 22 -11 -8 28 -12
49 10 50 20 8 21 3 -20
71 55 12 -19 -18 31 -81 16
3 63 33 -31 15 -30 -3 -39
8 13 -5 -58 -45 4 -41 0
-2 -22 42 4 -7 -17 45 -25
-49 2 -14 -19 -4 -24 36 -5
76 6 -8 19 0 23 -4 -23
48 11 -5 -24 5 -12 -11 40
13 10 24 -10 -1 -19 -10 -2
4 -10 7 -38 -1 11 -24 10
-11 -29 35 108 7 -39 -51 82
15 -73 -40 -10 -12 -59 -21 -43
-3 7 0 61 72 -12 77 34
-15 -14 59 -46 -64 -45 44 -2
23 -11 35 -66 18 2 -12 -10
18 12 -4 39 -11 2 50 2
32 -1 37 24 40 26 15 -2
59 38 10 -24 -17 28 -110 31
-37 68 51 -31 15 -12 -20 -63
11 9 -15 -58 -51 -7 -25 25
8 -43 16 -15 -18 -45 51 -35
-55 -3 -35 -24 -10 -32 71 -4
81 -11 -20 -5 -22 14 21 -28
20 -12 15 -40 10 -42 -21 38
1 18 17 0 9 0 -5 1
21 -26 -2 -58 -4 20 -28 14

VoiceClassifierCNN/dense1/MatMul i1 [128, 256] scale=0.0036451495 zero_point=0
00000000: dadb f1e6 0e1d 0f1c e002 fae8 06e3 f616
00000010: fa0a 1bf4 fe18 f61a 0bfa 1d1b e219 06ec
00000020: e318 dd12 17e5 f4f5 16ec fedb 08e1 19e1
00000030: f9e6 ee04 ed04 0411 080e 0909 0ce0 0602
00000040: 01f6 e81c e01d 1fe2 e310 dd22 e916 0811
00000050: e2ea f212 dcfc 0417 e209 fb1b e11d 1606
00000060: f50c 0af7 0711 fee6 f103 e9f2 ec13 03e8
00000070: 0519 e407 fee4 18e7 011c fe0c e5e1 0fe8
00000080: eddc 170e 19f8 1cef 03e2 0b0e e9f9 ed15
00000090: 16e9 07fe 1cda f5fb 11df 0af5 0fe9 dbfe
000000a0: 120d 1af5 1119 1bdb 0104 f2ed e6f8 e9db
000000b0: 0706 f4da e417 fcea fc03 f11e e914 efdb
000000c0: f406 ed15 ffe0 1813 ec07 ea02 140e 0ff1
000000d0: 05e6 dfee 1302 1002 db1b 05ea 0515 0cf6
000000e0: 060e dff9 040e 060e fe01 e915 0afb 07db
000000f0: 1c07 f21d f6dc fd01 e407 e312 0508 f6e1
-0.13851568 -0.13487053 -0.054677244 -0.09477389 0.051032092 0.10570934 0.054677244 0.102064185
-0.116644785 0.007290299 -0.021870896 -0.087483585 0.021870896 -0.10570934 -0.036451496 0.08019329
-0.021870896 0.036451496 0.09841904 -0.043741792 -0.007290299 0.087483585 -0.036451496 0.09477389
0.040096644 -0.021870896 0.10570934 0.09841904 -0.10935449 0.09112874 0.021870896 -0.07290299
-0.10570934 0.087483585 -0.12758024 0.06561269 0.08383844 -0.09841904 -0.043741792 -0.040096644
0.08019329 -0.07290299 -0.007290299 -0.13487053 0.029161196 -0.11299963 0.09112874 -0.11299963
-0.025516046 -0.09477389 -0.06561269 0.014580598 -0.06925784 0.014580598 0.014580598 0.06196754
0.029161196 0.051032092 0.032806344 0.032806344 0.043741792 -0.116644785 0.021870896 0.007290299
0.0036451495 -0.036451496 -0.087483585 0.102064185 -0.116644785 0.10570934 0.11299963 -0.10935449
-0.10570934 0.058322392 -0.12758024 0.12393508 -0.08383844 0.08019329 0.029161196 0.06196754
-0.10935449 -0.08019329 -0.051032092 0.06561269 -0.13122538 -0.014580598 0.014580598 0.08383844
-0.10935449 0.032806344 -0.018225748 0.09841904 -0.11299963 0.10570934 0.08019329 0.021870896
-0.040096644 0.043741792 0.036451496 -0.032806344 0.025516046 0.06196754 -0.007290299 -0.09477389
-0.054677244 0.010935448 -0.08383844 -0.051032092 -0.07290299 0.06925784 0.010935448 -0.087483585
0.018225748 0.09112874 -0.102064185 0.025516046 -0.007290299 -0.102064185 0.087483585 -0.09112874
0.0036451495 0.102064185 -0.007290299 0.043741792 -0.09841904 -0.11299963 0.054677244 -0.087483585
-0.06925784 -0.13122538 0.08383844 0.051032092 0.09112874 -0.029161196 0.102064185 -0.06196754
0.010935448 -0.10935449 0.040096644 0.051032092 -0.08383844 -0.025516046 -0.06925784 0.07654814
0.08019329 -0.08383844 0.025516046 -0.007290299 0.102064185 -0.13851568 -0.040096644 -0.018225748
0.06196754 -0.12028994 0.036451496 -0.040096644 0.054677244 -0.08383844 -0.13487053 -0.007290299
0.06561269 0.047386944 0.09477389 -0.040096644 0.06196754 0.09112874 0.09841904 -0.13487053
0.0036451495 0.014580598 -0.051032092 -0.06925784 -0.09477389 -0.029161196 -0.08383844 -0.13487053
0.025516046 0.021870896 -0.043741792 -0.13851568 -0.102064185 0.08383844 -0.014580598 -0.08019329
-0.014580598 0.010935448 -0.054677244 0.10935449 -0.08383844 0.07290299 -0.06196754 -0.13487053
-0.043741792 0.021870896 -0.06925784 0.07654814 -0.0036451495 -0.116644785 0.087483585 0.06925784
-0.07290299 0.025516046 -0.08019329 0.007290299 0.07290299 0.051032092 0.054677244 -0.054677244
0.018225748 -0.09477389 -0.12028994 -0.06561269 0.06925784 0.007290299 0.058322392 0.007290299
-0.13487053 0.09841904 0.018225748 -0.08019329 0.018225748 0.07654814 0.043741792 -0.036451496
0.021870896 0.051032092 -0.12028994 -0.025516046 0.014580598 0.051032092 0.021870896 0.051032092
-0.007290299 0.0036451495 -0.08383844 0.07654814 0.036451496 -0.018225748 0.025516046 -0.13487053
0.102064185 0.025516046 -0.051032092 0.10570934 -0.036451496 -0.13122538 -0.010935448 0.0036451495
-0.102064185 0.025516046 -0.10570934 0.06561269 0.018225748 0.029161196 -0.036451496 -0.11299963

VoiceClassifierCNN/dense2/MatMul i1 [64, 128] scale=0.0045219534 zero_point=0
00000000: 1a13 f4f2 e90f f3e1 d214 f320 e3fd 12f5
00000010: 08f5 1106 f12a 0902 f8de 4121 f1df e0f4
00000020: 1313 28f3 12f4 f0e4 ea23 0618 d2f1 f110
00000030: e220 f00a 1d03 e0f7 12d7 11fd f214 12e0
00000040: fad4 ddf0 d2ce e3fa ef19 e31a aabf 22d8
00000050: e219 e511 14f6 efea 1c00 c2f8 e8ee f4d1
00000060: e7ef ca27 d60e f1e7 c4e2 fdea 08f2 1f09
00000070: 29ec f9fb f827 1df2 181e e21d 09fc fd1b
00000080: 0e27 0347 1aeb e10c 0216 0c13 0b23 02fc
00000090: f2f1 da07 0315 ebc9 1d27 e30a e5d4 e127
000000a0: e1e2 dffa bcfc ee13 dae2 1ef5 eadc 1418
000000b0: 3fe4 fc27 0d10 f3d6 b80d e5e3 2418 e0e3
000000c0: fe15 24ff 1e4c 0b16 0f29 f510 1a0c f7f2
000000d0: 0425 c414 e727 1c00 f3d1 c5eb 0e0d c21d
000000e0: fa06 33f3 fa11 fadc 06fb dae2 fc2c f1e9
000000f0: c2e3 0412 edde 2612 08fe 121e e706 f8d6
0.11757079 0.085917115 -0.054263443 -0.063307345 -0.10400493 0.0678293 -0.058785394 -0.14018056
-0.20800985 0.09043907 -0.058785394 0.14470251 -0.13113666 -0.013565861 0.081395164 -0.049741488
0.036175627 -0.049741488 0.076873206 0.027131721 -0.0678293 0.18992205 0.040697582 0.009043907
-0.036175627 -0.15374641 0.29392698 0.14922446 -0.0678293 -0.14922446 -0.14470251 -0.054263443
0.085917115 0.085917115 0.18087813 -0.058785394 0.081395164 -0.054263443 -0.072351255 -0.12661469
-0.099482976 0.15826836 0.027131721 0.108526886 -0.20800985 -0.0678293 -0.0678293 0.072351255
-0.1356586 0.14470251 -0.072351255 0.045219533 0.13113666 0.013565861 -0.14470251 -0.040697582
0.081395164 -0.18540008 0.076873206 -0.013565861 -0.063307345 0.09043907 0.081395164 -0.14470251
-0.027131721 -0.19896595 -0.15826836 -0.072351255 -0.20800985 -0.22609767 -0.13113666 -0.027131721
-0.076873206 0.11304884 -0.13113666 0.11757079 -0.388888 -0.29392698 0.15374641 -0.18087813
-0.1356586 0.11304884 -0.12209274 0.076873206 0.09043907 -0.045219533 -0.076873206 -0.099482976
0.12661469 0.0 -0.28036112 -0.036175627 -0.108526886 -0.081395164 -0.054263443 -0.2125318
-0.11304884 -0.076873206 -0.24418548 0.17635618 -0.18992205 0.063307345 -0.0678293 -0.11304884
-0.2713172 -0.1356586 -0.013565861 -0.099482976 0.036175627 -0.063307345 0.14018056 0.040697582
0.18540008 -0.09043907 -0.031653672 -0.022609767 -0.036175627 0.17635618 0.13113666 -0.063307345
0.108526886 0.1356586 -0.1356586 0.13113666 0.040697582 -0.018087814 -0.013565861 0.12209274
0.063307345 0.17635618 0.013565861 0.3210587 0.11757079 -0.094961025 -0.14018056 0.054263443
0.009043907 0.099482976 0.054263443 0.085917115 0.049741488 0.15826836 0.009043907 -0.018087814
-0.063307345 -0.0678293 -0.17183423 0.031653672 0.013565861 0.094961025 -0.094961025 -0.24870744
0.13113666 0.17635618 -0.13113666 0.045219533 -0.12209274 -0.19896595 -0.14018056 0.17635618
-0.14018056 -0.1356586 -0.14922446 -0.027131721 -0.30749282 -0.018087814 -0.081395164 0.085917115
-0.17183423 -0.1356586 0.1356586 -0.049741488 -0.099482976 -0.16279033 0.09043907 0.108526886
0.28488305 -0.12661469 -0.018087814 0.17635618 0.058785394 0.072351255 -0.058785394 -0.18992205
-0.32558066 0.058785394 -0.12209274 -0.13113666 0.16279033 0.108526886 -0.14470251 -0.13113666
-0.009043907 0.094961025 0.16279033 -0.0045219534 0.1356586 0.34366846 0.049741488 0.099482976
0.0678293 0.18540008 -0.049741488 0.072351255 0.11757079 0.054263443 -0.040697582 -0.063307345
0.018087814 0.16731228 -0.2713172 0.09043907 -0.11304884 0.17635618 0.12661469 0.0
-0.058785394 -0.2125318 -0.26679525 -0.094961025 0.063307345 0.058785394 -0.28036112 0.13113666
-0.027131721 0.027131721 0.23061962 -0.058785394 -0.027131721 0.076873206 -0.027131721 -0.16279033
0.027131721 -0.022609767 -0.17183423 -0.1356586 -0.018087814 0.19896595 -0.0678293 -0.10400493
-0.28036112 -0.13113666 0.018087814 0.081395164 -0.085917115 -0.15374641 0.17183423 0.081395164
0.036175627 -0.009043907 0.081395164 0.1356586 -0.11304884 0.027131721 -0.036175627 -0.18992205
