model/model_int8.tflite (tflite, 449704 bytes, 7 tensors)

VoiceClassifierCNN/output/MatMul i1 [1, 64] scale=0.00067971094 zero_point=0
00000000: e516 c0ab 31b8 2b27 3b23 d6f1 21d0 c31c
00000010: 1507 d722 1abd c592 2fba 22a3 219b 1b28
00000020: 2621 42fc 10e8 9432 abcc bddf a6de a081
00000030: afea ce88 8ed1 db93 e720 1fdc 0bf9 0027
-0.018352196 0.01495364 -0.0435015 -0.05777543 0.033305835 -0.048939187 0.02922757 0.026508726
0.040102944 0.023789883 -0.028547859 -0.010195664 0.02243046 -0.032626126 -0.041462366 0.019031907
0.014273929 0.0047579766 -0.027868148 0.023110172 0.017672485 -0.045540635 -0.040102944 -0.0747682
0.031946413 -0.047579765 0.023110172 -0.06321312 0.02243046 -0.068650804 0.018352196 0.027188437
0.025829015 0.02243046 0.04486092 -0.0027188438 0.010875375 -0.016313063 -0.07340878 0.033985548
-0.05777543 -0.03534497 -0.045540635 -0.02243046 -0.061173983 -0.023110172 -0.06525225 -0.08632329
-0.055056587 -0.01495364 -0.033985548 -0.08156531 -0.077487044 -0.031946413 -0.025149304 -0.07408849
-0.016992774 0.02175075 0.02107104 -0.024469594 0.00747682 -0.0047579766 0.0 0.026508726

VoiceClassifierCNN/dense2/MatMul i1 [64, 128] scale=0.010522571 zero_point=0
00000000: f41f fdf3 0ad0 f2dc d703 ec04 f50a 3d4f
00000010: fbf4 0f57 fe01 0803 0d0a dcfd 0307 fb37
00000020: fd02 22f4 58d5 09e4 46e8 fb4c f815 cb19
00000030: fc01 fdf7 4a02 fd49 3afd 03ee c110 f7da
00000040: 0d05 2bf6 002d 1701 0223 d9fe 14d9 0c32
00000050: 0805 1f01 c730 d60c cde6 0105 0ffc d524
00000060: f9fa 3914 f3fc 0c02 0efd f1f5 0d52 d235
00000070: 0800 fbfc fcf3 f5fb 00df fc17 0505 32e4
00000080: fb3c f3f6 f0cc d3da d0f7 28fe 0e06 217e
00000090: 0604 023a 04f2 f60d 0a2d 1110 f20b 0e24
000000a0: 0cfc 3be2 4add d7ea 3bd8 f92c f42e c00a
000000b0: 0c0c f1f6 2a10 fe29 4b06 0021 0320 fddf
000000c0: 0ff0 11f5 084c 170e 012e e506 1cce 0b3b
000000d0: 010b 0b23 f44b de30 dad8 fcf5 3e34 d12e
000000e0: f80b 2d1b 02ed 2a06 0b15 fe04 1b26 cb18
000000f0: f20a 09fd f50b 06e8 fce9 1026 030c 35cf
-0.12627086 0.3261997 -0.031567715 -0.13679343 0.10522571 -0.50508344 -0.147316 -0.37881258
-0.43142542 0.031567715 -0.21045142 0.042090286 -0.115748286 0.10522571 0.6418769 0.83128315
-0.052612856 -0.12627086 0.15783857 0.9154637 -0.021045143 0.010522571 0.08418057 0.031567715
0.13679343 0.10522571 -0.37881258 -0.031567715 0.031567715 0.073658 -0.052612856 0.57874143
-0.031567715 0.021045143 0.35776743 -0.12627086 0.9259863 -0.45247057 0.094703145 -0.294632
0.73658 -0.25254172 -0.052612856 0.7997154 -0.08418057 0.220974 -0.5576963 0.2630643
-0.042090286 0.010522571 -0.031567715 -0.094703145 0.7786703 0.021045143 -0.031567715 0.7681477
0.6103091 -0.031567715 0.031567715 -0.18940629 -0.662922 0.16836114 -0.094703145 -0.3998577
0.13679343 0.052612856 0.45247057 -0.10522571 0.0 0.47351572 0.24201915 0.010522571
0.021045143 0.36829 -0.41038027 -0.021045143 0.21045142 -0.41038027 0.12627086 0.5261286
0.08418057 0.052612856 0.3261997 0.010522571 -0.5997866 0.50508344 -0.441948 0.12627086
-0.53665113 -0.27358687 0.010522571 0.052612856 0.15783857 -0.042090286 -0.45247057 0.37881258
-0.073658 -0.06313543 0.5997866 0.21045142 -0.13679343 -0.042090286 0.12627086 0.021045143
0.147316 -0.031567715 -0.15783857 -0.115748286 0.13679343 0.86285084 -0.4840383 0.5576963
0.08418057 0.0 -0.052612856 -0.042090286 -0.042090286 -0.13679343 -0.115748286 -0.052612856
0.0 -0.34724486 -0.042090286 0.24201915 0.052612856 0.052612856 0.5261286 -0.294632
-0.052612856 0.6313543 -0.13679343 -0.10522571 -0.16836114 -0.54717374 -0.47351572 -0.3998577
-0.50508344 -0.094703145 0.42090285 -0.021045143 0.147316 0.06313543 0.34724486 1.325844
0.06313543 0.042090286 0.021045143 0.6103091 0.042090286 -0.147316 -0.10522571 0.13679343
0.10522571 0.47351572 0.17888372 0.16836114 -0.147316 0.115748286 0.147316 0.37881258
0.12627086 -0.042090286 0.6208317 -0.31567714 0.7786703 -0.36829 -0.43142542 -0.23149657
0.6208317 -0.42090285 -0.073658 0.46299314 -0.12627086 0.4840383 -0.67344457 0.10522571
0.12627086 0.12627086 -0.15783857 -0.10522571 0.441948 0.16836114 -0.021045143 0.43142542
0.78919286 0.06313543 0.0 0.34724486 0.031567715 0.33672228 -0.031567715 -0.34724486
0.15783857 -0.16836114 0.17888372 -0.115748286 0.08418057 0.7997154 0.24201915 0.147316
0.010522571 0.4840383 -0.2841094 0.06313543 0.294632 -0.5261286 0.115748286 0.6208317
0.010522571 0.115748286 0.115748286 0.36829 -0.12627086 0.78919286 -0.35776743 0.50508344
-0.3998577 -0.42090285 -0.042090286 -0.115748286 0.6523994 0.54717374 -0.49456087 0.4840383
-0.08418057 0.115748286 0.47351572 0.2841094 0.021045143 -0.19992885 0.441948 0.06313543
0.115748286 0.220974 -0.021045143 0.042090286 0.2841094 0.3998577 -0.5576963 0.25254172
-0.147316 0.10522571 0.094703145 -0.031567715 -0.115748286 0.115748286 0.06313543 -0.25254172
-0.042090286 -0.24201915 0.16836114 0.3998577 0.031567715 0.12627086 0.5576963 -0.515606

VoiceClassifierCNN/dense1/MatMul i1 [128, 256] scale=0.010240234 zero_point=0
00000000: 01f6 fcfd 0b04 0bfc 03fd 04fa fd06 01f9
00000010: 0a00 0aff f4fa fcfb ff01 f809 fef7 08ff
00000020: fffe 05f3 f702 fff6 02fe 0909 ff07 fffa
00000030: f7fc f6ff 05f7 0afc f702 080a f800 000b
00000040: fcf7 00fc 00f3 fcfa f607 0000 fdf8 0607
00000050: fb06 06f6 0bf3 02fd f6fb f8ff 0704 0a08
00000060: 04fc fff9 fd00 f803 0904 f70a 02f6 0b02
00000070: fcf5 f4fc 03fb fdf9 fb04 fe00 0905 0907
00000080: 0a04 01f5 f404 070b f901 07f8 0101 fff4
00000090: f501 01f3 fff5 f909 f702 f804 f4fb fdfb
000000a0: 04fb fdf4 f7f6 0106 f9fa 0bfa 0501 fd09
000000b0: 03fe 02fa f9f5 0908 0402 f401 fc0a 020a
000000c0: ff04 fdfc f604 f801 f404 f706 0af7 f501
000000d0: f608 01fa 06f8 fafa 01f6 0505 07f6 fcf5
000000e0: f9fe 0bf8 f9fe 0502 07f4 f6fc 0302 fefb
000000f0: f90b 00fb 0908 f8f7 0bfb f304 0bf9 f6fc
0.010240234 -0.102402344 -0.040960938 -0.030720703 0.11264258 0.040960938 0.11264258 -0.040960938
0.030720703 -0.030720703 0.040960938 -0.061441407 -0.030720703 0.061441407 0.010240234 -0.07168164
0.102402344 0.0 0.102402344 -0.010240234 -0.12288281 -0.061441407 -0.040960938 -0.051201172
-0.010240234 0.010240234 -0.081921875 0.09216211 -0.020480469 -0.09216211 0.081921875 -0.010240234
-0.010240234 -0.020480469 0.051201172 -0.13312304 -0.09216211 0.020480469 -0.010240234 -0.102402344
0.020480469 -0.020480469 0.09216211 0.09216211 -0.010240234 0.07168164 -0.010240234 -0.061441407
-0.09216211 -0.040960938 -0.102402344 -0.010240234 0.051201172 -0.09216211 0.102402344 -0.040960938
-0.09216211 0.020480469 0.081921875 0.102402344 -0.081921875 0.0 0.0 0.11264258
-0.040960938 -0.09216211 0.0 -0.040960938 0.0 -0.13312304 -0.040960938 -0.061441407
-0.102402344 0.07168164 0.0 0.0 -0.030720703 -0.081921875 0.061441407 0.07168164
-0.051201172 0.061441407 0.061441407 -0.102402344 0.11264258 -0.13312304 0.020480469 -0.030720703
-0.102402344 -0.051201172 -0.081921875 -0.010240234 0.07168164 0.040960938 0.102402344 0.081921875
0.040960938 -0.040960938 -0.010240234 -0.07168164 -0.030720703 0.0 -0.081921875 0.030720703
0.09216211 0.040960938 -0.09216211 0.102402344 0.020480469 -0.102402344 0.11264258 0.020480469
-0.040960938 -0.11264258 -0.12288281 -0.040960938 0.030720703 -0.051201172 -0.030720703 -0.07168164
-0.051201172 0.040960938 -0.020480469 0.0 0.09216211 0.051201172 0.09216211 0.07168164
0.102402344 0.040960938 0.010240234 -0.11264258 -0.12288281 0.040960938 0.07168164 0.11264258
-0.07168164 0.010240234 0.07168164 -0.081921875 0.010240234 0.010240234 -0.010240234 -0.12288281
-0.11264258 0.010240234 0.010240234 -0.13312304 -0.010240234 -0.11264258 -0.07168164 0.09216211
-0.09216211 0.020480469 -0.081921875 0.040960938 -0.12288281 -0.051201172 -0.030720703 -0.051201172
0.040960938 -0.051201172 -0.030720703 -0.12288281 -0.09216211 -0.102402344 0.010240234 0.061441407
-0.07168164 -0.061441407 0.11264258 -0.061441407 0.051201172 0.010240234 -0.030720703 0.09216211
0.030720703 -0.020480469 0.020480469 -0.061441407 -0.07168164 -0.11264258 0.09216211 0.081921875
0.040960938 0.020480469 -0.12288281 0.010240234 -0.040960938 0.102402344 0.020480469 0.102402344
-0.010240234 0.040960938 -0.030720703 -0.040960938 -0.102402344 0.040960938 -0.081921875 0.010240234
-0.12288281 0.040960938 -0.09216211 0.061441407 0.102402344 -0.09216211 -0.11264258 0.010240234
-0.102402344 0.081921875 0.010240234 -0.061441407 0.061441407 -0.081921875 -0.061441407 -0.061441407
0.010240234 -0.102402344 0.051201172 0.051201172 0.07168164 -0.102402344 -0.040960938 -0.11264258
-0.07168164 -0.020480469 0.11264258 -0.081921875 -0.07168164 -0.020480469 0.051201172 0.020480469
0.07168164 -0.12288281 -0.102402344 -0.040960938 0.030720703 0.020480469 -0.020480469 -0.051201172
-0.07168164 0.11264258 0.0 -0.051201172 0.09216211 0.081921875 -0.081921875 -0.09216211
0.11264258 -0.051201172 -0.13312304 0.040960938 0.11264258 -0.07168164 -0.102402344 -0.040960938

VoiceClassifierCNN/conv4/Conv2D i1 [256, 3, 3, 128]
00000000: d9dd e60b deff cbed 0ee2 d3fc cfd9 e6f6
00000010: fcf0 ebf9 07d9 35e6 0209 0ce8 1ce3 0cfa
00000020: 0b10 1bdb cdf9 f9e1 f805 dcf1 14e6 e4d1
00000030: e3b9 c04f 0d08 f735 d9f0 01c9 0c11 f021
00000040: eeeb cdd4 fc0b e3e9 d508 f8f7 e5ca eaee
00000050: 03ca c0e5 e9fc 40d9 1e42 2b0d d911 3be8
00000060: 1058 17f4 36dd cf43 3ce0 21fc 54c8 e0f2
00000070: d9d2 3e11 1d15 1af5 092a fc17 e40d fc2d
00000080: d0ec 1115 d30b c2ef 23fd ed11 d8e0 f413
00000090: f8ed d9e5 15ed 68fb 0817 12f5 08eb 15fb
000000a0: 4620 29df d6cb 0ae4 0119 e025 1cff f5dc
000000b0: d1bb cc40 0813 f934 eee4 03dd 1828 eb4a
000000c0: f6f6 e3de f811 f3ca d340 eaea ddcd df16
000000d0: 04bd c2e8 0104 32ba 0a39 4002 e718 19d1
000000e0: 2338 4aed 39db e248 62d6 0efc 35d7 e5fb
000000f0: ddb6 1c18 0d0c 20ef 1745 2203 c221 0529
-39 -35 -26 11 -34 -1 -53 -19
14 -30 -45 -4 -49 -39 -26 -10
-4 -16 -21 -7 7 -39 53 -26
2 9 12 -24 28 -29 12 -6
11 16 27 -37 -51 -7 -7 -31
-8 5 -36 -15 20 -26 -28 -47
-29 -71 -64 79 13 8 -9 53
-39 -16 1 -55 12 17 -16 33
-18 -21 -51 -44 -4 11 -29 -23
-43 8 -8 -9 -27 -54 -22 -18
3 -54 -64 -27 -23 -4 64 -39
30 66 43 13 -39 17 59 -24
16 88 23 -12 54 -35 -49 67
60 -32 33 -4 84 -56 -32 -14
-39 -46 62 17 29 21 26 -11
9 42 -4 23 -28 13 -4 45
-48 -20 17 21 -45 11 -62 -17
35 -3 -19 17 -40 -32 -12 19
-8 -19 -39 -27 21 -19 104 -5
8 23 18 -11 8 -21 21 -5
70 32 41 -33 -42 -53 10 -28
1 25 -32 37 28 -1 -11 -36
-47 -69 -52 64 8 19 -7 52
-18 -28 3 -35 24 40 -21 74
-10 -10 -29 -34 -8 17 -13 -54
-45 64 -22 -22 -35 -51 -33 22
4 -67 -62 -24 1 4 50 -70
10 57 64 2 -25 24 25 -47
35 56 74 -19 57 -37 -30 72
98 -42 14 -4 53 -41 -27 -5
-35 -74 28 24 13 12 32 -17
23 69 34 3 -62 33 5 41

VoiceClassifierCNN/conv3/Conv2D i1 [128, 3, 3, 64]
00000000: 14ef 251e fb9f e9d6 fcd7 282e 0827 360d
00000010: e43d 0fe7 f30e 2a2c 3922 24c1 c317 d408
00000020: 3b44 1d05 f4ec e2ee eff8 e60c 11ff d82c
00000030: ff1b d00c 11de 15fe d30f 2519 25f3 0402
00000040: dfea 1901 01ca e5f9 12a8 fce2 fcfc edef
00000050: e6e1 ebc5 d207 d708 2af8 0eb2 bf23 f0c5
00000060: 3634 0c06 dbf6 e8e9 03d9 eb11 fd11 c414
00000070: 0d1d c115 11d4 ebe9 d405 24dd 26e4 02fb
00000080: 1a05 22ef fde8 f311 00e9 0df0 16fd 0e11
00000090: 1514 0cf9 f10b 0922 4e0e 16c6 f811 13de
000000a0: 383b f614 f6d2 06fe 012b dd0d f712 b806
000000b0: 1339 f116 13ea 0b0d 250b 4fe9 2a0a 1e09
000000c0: ccc3 fb14 2014 b896 edf7 28f5 111c fab4
000000d0: bc08 e796 02d0 ceff f7f6 1121 efd3 e61b
000000e0: 11dd f6f0 deb2 e6fa 0f3d 8e3b 240d dc21
000000f0: 33c9 fffe f61e 301c cbeb 0708 ed0f 2508
20 -17 37 30 -5 -97 -23 -42
-4 -41 40 46 8 39 54 13
-28 61 15 -25 -13 14 42 44
57 34 36 -63 -61 23 -44 8
59 68 29 5 -12 -20 -30 -18
-17 -8 -26 12 17 -1 -40 44
-1 27 -48 12 17 -34 21 -2
-45 15 37 25 37 -13 4 2
-33 -22 25 1 1 -54 -27 -7
18 -88 -4 -30 -4 -4 -19 -17
-26 -31 -21 -59 -46 7 -41 8
42 -8 14 -78 -65 35 -16 -59
54 52 12 6 -37 -10 -24 -23
3 -39 -21 17 -3 17 -60 20
13 29 -63 21 17 -44 -21 -23
-44 5 36 -35 38 -28 2 -5
26 5 34 -17 -3 -24 -13 17
0 -23 13 -16 22 -3 14 17
21 20 12 -7 -15 11 9 34
78 14 22 -58 -8 17 19 -34
56 59 -10 20 -10 -46 6 -2
1 43 -35 13 -9 18 -72 6
19 57 -15 22 19 -22 11 13
37 11 79 -23 42 10 30 9
-52 -61 -5 20 32 20 -72 -106
-19 -9 40 -11 17 28 -6 -76
-68 8 -25 -106 2 -48 -50 -1
-9 -10 17 33 -17 -45 -26 27
17 -35 -10 -16 -34 -78 -26 -6
15 61 -114 59 36 13 -36 33
51 -55 -1 -2 -10 30 48 28
-53 -21 7 8 -19 15 37 8

VoiceClassifierCNN/conv2/Conv2D i1 [64, 3, 3, 32]
00000000: f7f8 fcf3 05d9 121f ec13 1228 0b0c 0d12
00000010: fd12 0e26 04f6 140f db19 2af7 06f4 21f4
00000020: 18e6 eb0a 06c9 0e0b f5f7 0c1f eb19 110c
00000030: 1004 0818 dbfa 02ed d01c 1a01 f1e1 1402
00000040: 00f1 dc06 11d5 e00a e0ff 042c 0216 f70a
00000050: 1211 0503 dceb ff13 d808 15fd f8e4 120f
00000060: 232c f209 a40c edf6 d8f9 ccdc e381 0704
00000070: 0a36 cdfc 10dc 10b3 13e3 e0d0 f4fa 0ccd
00000080: fc08 07f0 c60b f1fd d826 dced d2a9 2e05
00000090: 001c c5f0 0cdc 24d7 01f9 d4e8 fdf4 f4cd
000000a0: e821 edfb e309 05fd ec14 d6e6 ca8f 16f4
000000b0: 0f22 d307 1dfa 1abe 1bdf f3d2 0301 0cb5
000000c0: 08e2 dbbe f903 96ae 26c9 b4c8 04e2 d89e
000000d0: f6c1 04af c618 c7f0 d6a1 a111 0e66 cbfc
000000e0: e1df dfad f9fe 95b0 0cca adc2 efe8 b8b1
000000f0: d7ba f4d2 d2e3 aee3 04ac b018 d34e b9f7
-9 -8 -4 -13 5 -39 18 31
-20 19 18 40 11 12 13 18
-3 18 14 38 4 -10 20 15
-37 25 42 -9 6 -12 33 -12
24 -26 -21 10 6 -55 14 11
-11 -9 12 31 -21 25 17 12
16 4 8 24 -37 -6 2 -19
-48 28 26 1 -15 -31 20 2
0 -15 -36 6 17 -43 -32 10
-32 -1 4 44 2 22 -9 10
18 17 5 3 -36 -21 -1 19
-40 8 21 -3 -8 -28 18 15
35 44 -14 9 -92 12 -19 -10
-40 -7 -52 -36 -29 -127 7 4
10 54 -51 -4 16 -36 16 -77
19 -29 -32 -48 -12 -6 12 -51
-4 8 7 -16 -58 11 -15 -3
-40 38 -36 -19 -46 -87 46 5
0 28 -59 -16 12 -36 36 -41
1 -7 -44 -24 -3 -12 -12 -51
-24 33 -19 -5 -29 9 5 -3
-20 20 -42 -26 -54 -113 22 -12
15 34 -45 7 29 -6 26 -66
27 -33 -13 -46 3 1 12 -75
8 -30 -37 -66 -7 3 -106 -82
38 -55 -76 -56 4 -30 -40 -98
-10 -63 4 -81 -58 24 -57 -16
-42 -95 -95 17 14 102 -53 -4
-31 -33 -33 -83 -7 -2 -107 -80
12 -54 -83 -62 -17 -24 -72 -79
-41 -70 -12 -46 -46 -29 -82 -29
4 -84 -80 24 -45 78 -71 -9

VoiceClassifierCNN/conv1/Conv2D i1 [32, 3, 3, 1]
00000000: 8afd 7fc7 0b34 61db b7eb edc4 edda 810e
00000010: e5d9 819b dca9 9ff5 cfb6 1d5c 2904 edb7
00000020: 8143 02b9 531c 047f 405b eced c59c cfad
00000030: e196 81fd 061e 7f44 55d0 ceb5 0b08 f47a
00000040: 7f3d c6b3 e413 2cf4 de46 204c 3417 7ff2
00000050: cfef b8db d18a 9cd5 81bf 7f56 3101 e6d7
00000060: 734e fff5 e3e2 190a eea7 ae81 5f1f 976d
00000070: 14af 7ff6 bbe1 0f14 7d7f 7793 caac 7b7f
00000080: 3fac 053d cad0 c937 4d77 8f85 81eb 282c
00000090: 557f 2eea 651a e2a4 e108 1813 ea08 edba
000000a0: a181 272f fc41 7ff8 dcec fef9 06f2 8d8c
000000b0: 8102 0a01 c5d6 81b9 d2ab efe7 b1f3 7fb7
000000c0: 2ed6 3de6 f21d f013 1808 e707 c881 badb
000000d0: d2d2 5a65 7f9b 93cb 9bc5 8bab 8e81 0814
000000e0: ec7f 4d61 e0c0 ca58 3516 dad5 d82c 1d16
000000f0: aa89 817f bcd4 4fdd 3d00 7545 5124 854d
-118 -3 127 -57 11 52 97 -37
-73 -21 -19 -60 -19 -38 -127 14
-27 -39 -127 -101 -36 -87 -97 -11
-49 -74 29 92 41 4 -19 -73
-127 67 2 -71 83 28 4 127
64 91 -20 -19 -59 -100 -49 -83
-31 -106 -127 -3 6 30 127 68
85 -48 -50 -75 11 8 -12 122
127 61 -58 -77 -28 19 44 -12
-34 70 32 76 52 23 127 -14
-49 -17 -72 -37 -47 -118 -100 -43
-127 -65 127 86 49 1 -26 -41
115 78 -1 -11 -29 -30 25 10
-18 -89 -82 -127 95 31 -105 109
20 -81 127 -10 -69 -31 15 20
125 127 119 -109 -54 -84 123 127
63 -84 5 61 -54 -48 -55 55
77 119 -113 -123 -127 -21 40 44
85 127 46 -22 101 26 -30 -92
-31 8 24 19 -22 8 -19 -70
-95 -127 39 47 -4 65 127 -8
-36 -20 -2 -7 6 -14 -115 -116
-127 2 10 1 -59 -42 -127 -71
-46 -85 -17 -25 -79 -13 127 -73
46 -42 61 -26 -14 29 -16 19
24 8 -25 7 -56 -127 -70 -37
-46 -46 90 101 127 -101 -109 -53
-101 -59 -117 -85 -114 -127 8 20
-20 127 77 97 -32 -64 -54 88
53 22 -38 -43 -40 44 29 22
-86 -119 -127 127 -68 -44 79 -35
61 0 117 69 81 36 -123 77
