model/model_int8.tflite (tflite, 449704 bytes, 7 tensors)

VoiceClassifierCNN/output/MatMul i1 [1, 64] scale=0.0008452699 zero_point=0
000000 ea 20 b5 a4 4b b2 42 42 57 3a c6 de 31 c1 b9 23
       -0.018595938 0.027048636 -0.06339524 -0.07776483 0.06339524 -0.06593105 0.055787813 0.055787813 0.07353848 0.049025655 -0.049025655 -0.028739177 0.041418225 -0.053252004 -0.060014162 0.029584445
000010 21 01 c8 30 24 b5 bb 92 46 af 25 9f 2d 99 2b 3b
       0.027893906 0.0008452699 -0.047335114 0.040572956 0.030429715 -0.06339524 -0.05832362 -0.092979684 0.05916889 -0.06846686 0.031274986 -0.08199118 0.038037144 -0.0870628 0.036346603 0.049870923
000020 30 40 1a e8 1f f8 92 50 a4 bf b4 ce a3 cf 9d 81
       0.040572956 0.054097272 0.021977017 -0.020286478 0.026203366 -0.006762159 -0.092979684 0.06762159 -0.07776483 -0.05494254 -0.06424051 -0.042263493 -0.0786101 -0.041418225 -0.08368172 -0.10734928
000030 a7 da c0 8a 8e c4 ce 94 d5 2e 2a ce 16 e6 01 0c
       -0.07522902 -0.032120254 -0.054097272 -0.09974185 -0.096360765 -0.05071619 -0.042263493 -0.09128915 -0.036346603 0.038882416 0.035501335 -0.042263493 0.018595938 -0.021977017 0.0008452699 0.010143239

VoiceClassifierCNN/dense2/MatMul i1 [64, 128] scale=0.010579516 zero_point=0
000000 f4 1e fd f3 0a cf f0 db da 03 ea 04 f5 0a 3b 4b
       -0.1269542 0.3173855 -0.03173855 -0.13753371 0.10579516 -0.5183963 -0.16927226 -0.3914421 -0.40202162 0.03173855 -0.23274936 0.042318065 -0.11637468 0.10579516 0.62419146 0.7934637
000010 fb f4 0f 54 fe 01 08 03 0d 0d dd fd 03 08 fb 33
       -0.05289758 -0.1269542 0.15869275 0.8886794 -0.021159032 0.010579516 0.08463613 0.03173855 0.13753371 0.13753371 -0.37028307 -0.03173855 0.03173855 0.08463613 -0.05289758 0.5395553
000020 fd 02 21 f1 54 d4 08 e1 46 e7 fb 4a f8 17 c8 19
       -0.03173855 0.021159032 0.34912404 -0.15869275 0.8886794 -0.46549872 0.08463613 -0.327965 0.74056613 -0.2644879 -0.05289758 0.7828842 -0.08463613 0.24332887 -0.5924529 0.2644879
000030 fc 01 fd f7 48 02 fd 46 38 fd 03 ee bf 10 f7 d8
       -0.042318065 0.010579516 -0.03173855 -0.09521565 0.7617252 0.021159032 -0.03173855 0.74056613 0.5924529 -0.03173855 0.03173855 -0.1904313 -0.68766856 0.16927226 -0.09521565 -0.42318064
000040 0d 03 29 f6 00 2c 1a 01 02 1e d9 fe 16 d9 0c 33
       0.13753371 0.03173855 0.43376017 -0.10579516 0.0 0.46549872 0.27506742 0.010579516 0.021159032 0.3173855 -0.41260114 -0.021159032 0.23274936 -0.41260114 0.1269542 0.5395553
000050 08 05 1f ff c3 2e d5 0e cc e4 01 05 0e fb d4 23
       0.08463613 0.05289758 0.327965 -0.010579516 -0.6453505 0.48665774 -0.4549192 0.14811322 -0.55013484 -0.29622644 0.010579516 0.05289758 0.14811322 -0.05289758 -0.46549872 0.37028307
000060 f9 fa 37 12 ee fb 07 02 0e fe f1 f5 0e 50 d3 31
       -0.07405661 -0.0634771 0.5818734 0.1904313 -0.1904313 -0.05289758 0.07405661 0.021159032 0.14811322 -0.021159032 -0.15869275 -0.11637468 0.14811322 0.8463613 -0.47607824 0.5183963
000070 08 00 fb fc fc f3 f5 fb 00 df fc 1e 05 05 32 e3
       0.08463613 0.0 -0.05289758 -0.042318065 -0.042318065 -0.13753371 -0.11637468 -0.05289758 0.0 -0.34912404 -0.042318065 0.3173855 0.05289758 0.05289758 0.5289758 -0.30680597
000080 fb 3c f3 f6 f0 ce d4 da d1 f7 29 fe 0e 06 22 7e
       -0.05289758 0.634771 -0.13753371 -0.10579516 -0.16927226 -0.5289758 -0.46549872 -0.40202162 -0.49723727 -0.09521565 0.43376017 -0.021159032 0.14811322 0.0634771 0.35970354 1.333019
000090 06 03 02 3b 04 f2 f6 0d 0a 2b 11 10 f2 0b 0e 26
       0.0634771 0.03173855 0.021159032 0.62419146 0.042318065 -0.14811322 -0.10579516 0.13753371 0.10579516 0.4549192 0.17985177 0.16927226 -0.14811322 0.11637468 0.14811322 0.40202162
0000a0 0c fc 3b e3 4b dd d8 eb 3c d8 f9 2c f4 2c c1 0a
       0.1269542 -0.042318065 0.62419146 -0.30680597 0.7934637 -0.37028307 -0.42318064 -0.22216985 0.634771 -0.42318064 -0.07405661 0.46549872 -0.1269542 0.46549872 -0.6665095 0.10579516
0000b0 0c 0c f1 f6 2b 10 fe 2a 4b 06 00 20 03 20 fd df
       0.1269542 0.1269542 -0.15869275 -0.10579516 0.4549192 0.16927226 -0.021159032 0.4443397 0.7934637 0.0634771 0.0 0.33854452 0.03173855 0.33854452 -0.03173855 -0.34912404
0000c0 0f f0 12 f5 08 4b 17 0e 01 30 e5 06 1a ce 0b 3a
       0.15869275 -0.16927226 0.1904313 -0.11637468 0.08463613 0.7934637 0.24332887 0.14811322 0.010579516 0.5078168 -0.28564695 0.0634771 0.27506742 -0.5289758 0.11637468 0.61361194
0000d0 01 0b 0b 24 f4 4b df 30 da d8 fc f5 3e 33 d1 2e
       0.010579516 0.11637468 0.11637468 0.3808626 -0.1269542 0.7934637 -0.34912404 0.5078168 -0.40202162 -0.42318064 -0.042318065 -0.11637468 0.65593 0.5395553 -0.49723727 0.48665774
0000e0 f8 0b 2e 1b 04 ed 2b 06 0b 15 fe 05 1b 26 cb 19
       -0.08463613 0.11637468 0.48665774 0.28564695 0.042318065 -0.20101081 0.4549192 0.0634771 0.11637468 0.22216985 -0.021159032 0.05289758 0.28564695 0.40202162 -0.56071436 0.2644879
0000f0 f2 0a 09 fd f6 0b 06 e8 fc e9 10 21 03 0c 35 ce
       -0.14811322 0.10579516 0.09521565 -0.03173855 -0.10579516 0.11637468 0.0634771 -0.2539084 -0.042318065 -0.24332887 0.16927226 0.34912404 0.03173855 0.1269542 0.56071436 -0.5289758

VoiceClassifierCNN/dense1/MatMul i1 [128, 256] scale=0.010191432 zero_point=0
000000 01 f6 fc fd 0b 04 0b fc 03 fd 04 fa fd 06 01 f9
       0.010191432 -0.101914324 -0.04076573 -0.030574296 0.11210576 0.04076573 0.11210576 -0.04076573 0.030574296 -0.030574296 0.04076573 -0.06114859 -0.030574296 0.06114859 0.010191432 -0.071340024
000010 0a 00 0a ff f4 fa fc fb ff 01 f7 09 fe f6 08 ff
       0.101914324 0.0 0.101914324 -0.010191432 -0.12229718 -0.06114859 -0.04076573 -0.050957162 -0.010191432 0.010191432 -0.09172289 0.09172289 -0.020382864 -0.101914324 0.08153146 -0.010191432
000020 ff fe 05 f3 f7 02 ff f6 02 fe 09 09 ff 07 ff fa
       -0.010191432 -0.020382864 0.050957162 -0.13248862 -0.09172289 0.020382864 -0.010191432 -0.101914324 0.020382864 -0.020382864 0.09172289 0.09172289 -0.010191432 0.071340024 -0.010191432 -0.06114859
000030 f7 fc f6 ff 05 f7 0a fc f7 02 08 0b f8 00 00 0b
       -0.09172289 -0.04076573 -0.101914324 -0.010191432 0.050957162 -0.09172289 0.101914324 -0.04076573 -0.09172289 0.020382864 0.08153146 0.11210576 -0.08153146 0.0 0.0 0.11210576
000040 fc f7 00 fc 00 f3 fc fa f6 07 00 00 fd f8 06 07
       -0.04076573 -0.09172289 0.0 -0.04076573 0.0 -0.13248862 -0.04076573 -0.06114859 -0.101914324 0.071340024 0.0 0.0 -0.030574296 -0.08153146 0.06114859 0.071340024
000050 fb 06 06 f6 0b f3 02 fd f6 fb f8 ff 07 04 0a 08
       -0.050957162 0.06114859 0.06114859 -0.101914324 0.11210576 -0.13248862 0.020382864 -0.030574296 -0.101914324 -0.050957162 -0.08153146 -0.010191432 0.071340024 0.04076573 0.101914324 0.08153146
000060 04 fc ff f9 fd 00 f8 03 09 04 f7 0a 02 f6 0b 02
       0.04076573 -0.04076573 -0.010191432 -0.071340024 -0.030574296 0.0 -0.08153146 0.030574296 0.09172289 0.04076573 -0.09172289 0.101914324 0.020382864 -0.101914324 0.11210576 0.020382864
000070 fc f5 f4 fc 03 fb fd f9 fb 04 fe 00 09 05 09 07
       -0.04076573 -0.11210576 -0.12229718 -0.04076573 0.030574296 -0.050957162 -0.030574296 -0.071340024 -0.050957162 0.04076573 -0.020382864 0.0 0.09172289 0.050957162 0.09172289 0.071340024
000080 0a 04 01 f5 f4 04 07 0b f9 01 07 f8 01 01 ff f4
       0.101914324 0.04076573 0.010191432 -0.11210576 -0.12229718 0.04076573 0.071340024 0.11210576 -0.071340024 0.010191432 0.071340024 -0.08153146 0.010191432 0.010191432 -0.010191432 -0.12229718
000090 f5 01 01 f3 ff f5 f9 09 f7 02 f8 04 f4 fb fd fb
       -0.11210576 0.010191432 0.010191432 -0.13248862 -0.010191432 -0.11210576 -0.071340024 0.09172289 -0.09172289 0.020382864 -0.08153146 0.04076573 -0.12229718 -0.050957162 -0.030574296 -0.050957162
0000a0 04 fb fd f4 f7 f6 01 06 f9 fa 0b fa 05 01 fd 0a
       0.04076573 -0.050957162 -0.030574296 -0.12229718 -0.09172289 -0.101914324 0.010191432 0.06114859 -0.071340024 -0.06114859 0.11210576 -0.06114859 0.050957162 0.010191432 -0.030574296 0.101914324
0000b0 03 fe 02 fa f9 f5 09 08 04 02 f4 01 fc 0a 02 0a
       0.030574296 -0.020382864 0.020382864 -0.06114859 -0.071340024 -0.11210576 0.09172289 0.08153146 0.04076573 0.020382864 -0.12229718 0.010191432 -0.04076573 0.101914324 0.020382864 0.101914324
0000c0 ff 04 fd fc f6 04 f7 01 f3 04 f7 06 0a f7 f5 01
       -0.010191432 0.04076573 -0.030574296 -0.04076573 -0.101914324 0.04076573 -0.09172289 0.010191432 -0.13248862 0.04076573 -0.09172289 0.06114859 0.101914324 -0.09172289 -0.11210576 0.010191432
0000d0 f6 08 01 fa 06 f8 fa f9 01 f5 05 05 07 f6 fc f5
       -0.101914324 0.08153146 0.010191432 -0.06114859 0.06114859 -0.08153146 -0.06114859 -0.071340024 0.010191432 -0.11210576 0.050957162 0.050957162 0.071340024 -0.101914324 -0.04076573 -0.11210576
0000e0 f9 fe 0b f8 f9 fe 05 02 07 f4 f6 fc 03 02 fe fb
       -0.071340024 -0.020382864 0.11210576 -0.08153146 -0.071340024 -0.020382864 0.050957162 0.020382864 0.071340024 -0.12229718 -0.101914324 -0.04076573 0.030574296 0.020382864 -0.020382864 -0.050957162
0000f0 f9 0b 00 fb 09 08 f8 f7 0b fb f3 04 0b f9 f6 fc
       -0.071340024 0.11210576 0.0 -0.050957162 0.09172289 0.08153146 -0.08153146 -0.09172289 0.11210576 -0.050957162 -0.13248862 0.04076573 0.11210576 -0.071340024 -0.101914324 -0.04076573

VoiceClassifierCNN/conv4/Conv2D i1 [256, 3, 3, 128]
000000 db d9 e5 05 e2 fd c9 ea 0c db d1 01 d2 d4 e7 ef
       -37 -39 -27 5 -30 -3 -55 -22 12 -37 -47 1 -46 -44 -25 -17
000010 fb f4 e9 ff 04 d7 2f e2 02 08 08 e3 25 de 05 f8
       -5 -12 -23 -1 4 -41 47 -30 2 8 8 -29 37 -34 5 -8
000020 10 0b 1a dc c8 04 01 e3 f9 02 df f3 14 e8 e6 d5
       16 11 26 -36 -56 4 1 -29 -7 2 -33 -13 20 -24 -26 -43
000030 e7 be c2 52 10 0b f2 34 d8 eb 02 cd 16 15 ef 1a
       -25 -66 -62 82 16 11 -14 52 -40 -21 2 -51 22 21 -17 26
000040 eb e9 ca d8 fa 08 df eb da 09 fc f3 ea c7 ea f0
       -21 -23 -54 -40 -6 8 -33 -21 -38 9 -4 -13 -22 -57 -22 -16
000050 07 cd c6 e6 e7 f6 38 dc 1b 45 33 16 d4 09 39 ec
       7 -51 -58 -26 -25 -10 56 -36 27 69 51 22 -44 9 57 -20
000060 12 5e 0f ec 30 e1 cc 43 3c e0 26 00 59 c7 e4 f1
       18 94 15 -20 48 -31 -52 67 60 -32 38 0 89 -57 -28 -15
000070 df d6 3e 0e 25 18 18 f9 08 23 f6 13 e8 0c f8 2d
       -33 -42 62 14 37 24 24 -7 8 35 -10 19 -24 12 -8 45
000080 d2 e8 0f 11 d6 08 c1 ec 1d f7 eb 13 da dc f4 0d
       -46 -24 15 17 -42 8 -63 -20 29 -9 -21 19 -38 -36 -12 13
000090 f7 f0 d9 ec 11 eb 67 f8 08 16 0e f0 11 e6 0f f8
       -9 -16 -39 -20 17 -21 103 -8 8 22 14 -16 17 -26 15 -8
0000a0 48 1b 2b df d3 d4 13 e6 03 16 e2 26 1e ff f5 df
       72 27 43 -33 -45 -44 19 -26 3 22 -30 38 30 -1 -11 -33
0000b0 d6 c0 cb 40 0a 18 f4 32 ed e1 03 e3 20 2a ea 43
       -42 -64 -53 64 10 24 -12 50 -19 -31 3 -29 32 42 -22 67
0000c0 f5 f5 de e0 f5 0e ef ce d6 41 ed e6 e1 cc df 16
       -11 -11 -34 -32 -11 14 -17 -50 -42 65 -19 -26 -31 -52 -33 22
0000d0 09 be c6 e8 ff fd 29 bd 08 39 46 09 e3 12 18 d3
       9 -66 -58 -24 -1 -3 41 -67 8 57 70 9 -29 18 24 -45
0000e0 25 3f 44 e8 33 de e0 47 64 d4 15 00 39 d7 e9 f9
       37 63 68 -24 51 -34 -32 71 100 -44 21 0 57 -41 -23 -7
0000f0 e1 ba 1b 15 15 0f 1d f1 18 3e 1d 00 c3 1e 01 28
       -31 -70 27 21 21 15 29 -15 24 62 29 0 -61 30 1 40

VoiceClassifierCNN/conv3/Conv2D i1 [128, 3, 3, 64]
000000 1b ef 28 22 f8 9d e6 d5 f9 d5 25 2c 08 2a 37 0e
       27 -17 40 34 -8 -99 -26 -43 -7 -43 37 44 8 42 55 14
000010 e3 44 0d e7 f4 0b 2c 30 3b 26 23 bf c2 14 d2 05
       -29 68 13 -25 -12 11 44 48 59 38 35 -65 -62 20 -46 5
000020 3e 46 1f 07 f4 e6 e0 eb f1 f6 e7 0a 10 fc d3 2c
       62 70 31 7 -12 -26 -32 -21 -15 -10 -25 10 16 -4 -45 44
000030 ff 17 cf 0f 0e de 19 fb cf 13 26 1a 29 f2 04 00
       -1 23 -49 15 14 -34 25 -5 -49 19 38 26 41 -14 4 0
000040 e5 eb 1c 04 ff c9 e2 f9 0f a5 f8 df fc fe ec f0
       -27 -21 28 4 -1 -55 -30 -7 15 -91 -8 -33 -4 -2 -20 -16
000050 e6 e5 e9 c6 d3 04 d7 0b 2a fc 0d b0 be 20 f0 c0
       -26 -27 -23 -58 -45 4 -41 11 42 -4 13 -80 -66 32 -16 -64
000060 39 35 0d 08 db ef e6 e6 05 d7 ec 10 fc 10 be 13
       57 53 13 8 -37 -17 -26 -26 5 -41 -20 16 -4 16 -66 19
000070 0d 19 bf 17 0e d5 ed e5 d1 09 26 df 29 e3 02 fa
       13 25 -65 23 14 -43 -19 -27 -47 9 38 -33 41 -29 2 -6
000080 21 06 25 f2 fc e8 f1 12 fd e7 08 ec 16 fe 0d 13
       33 6 37 -14 -4 -24 -15 18 -3 -25 8 -20 22 -2 13 19
000090 16 19 0a fb f2 08 0b 25 4f 11 14 c4 f8 0d 14 da
       22 25 10 -5 -14 8 11 37 79 17 20 -60 -8 13 20 -38
0000a0 3a 3b f7 17 f7 cc 05 fc 04 2b df 0b f4 11 b3 05
       58 59 -9 23 -9 -52 5 -4 4 43 -33 11 -12 17 -77 5
0000b0 12 35 f1 18 10 ed 0f 0a 23 0f 50 ed 2c 09 1e 08
       18 53 -15 24 16 -19 15 10 35 15 80 -19 44 9 30 8
0000c0 cf c3 fb 17 1e 16 b7 96 e8 f5 23 ef 0d 1d f7 b6
       -49 -61 -5 23 30 22 -73 -106 -24 -11 35 -17 13 29 -9 -74
0000d0 b9 0c e4 95 03 cb ce 03 f9 f8 0d 1e ee d0 e8 14
       -71 12 -28 -107 3 -53 -50 3 -7 -8 13 30 -18 -48 -24 20
0000e0 15 df f4 f3 dc ac e2 f6 12 3a 8e 38 21 0a d9 21
       21 -33 -12 -13 -36 -84 -30 -10 18 58 -114 56 33 10 -39 33
0000f0 2d c5 fc 01 f1 1e 34 19 c7 ee 0a 0a ef 0d 22 08
       45 -59 -4 1 -15 30 52 25 -57 -18 10 10 -17 13 34 8

VoiceClassifierCNN/conv2/Conv2D i1 [64, 3, 3, 32]
000000 fa fb ff f5 06 db 16 22 ee 16 16 2a 0e 0d 10 16
       -6 -5 -1 -11 6 -37 22 34 -18 22 22 42 14 13 16 22
000010 ff 12 10 2a 07 f9 15 12 dd 1d 2d fa 09 f7 25 f7
       -1 18 16 42 7 -7 21 18 -35 29 45 -6 9 -9 37 -9
000020 1b e8 ef 0d 07 ca 12 0e f8 f9 10 21 ee 1a 14 10
       27 -24 -17 13 7 -54 18 14 -8 -7 16 33 -18 26 20 16
000030 12 04 09 1b dd fc 03 ef d2 20 1d 04 f4 e3 17 05
       18 4 9 27 -35 -4 3 -17 -46 32 29 4 -12 -29 23 5
000040 03 f3 df 09 13 d7 e3 0e e3 01 07 2e 05 18 fa 0d
       3 -13 -33 9 19 -41 -29 14 -29 1 7 46 5 24 -6 13
000050 14 11 07 06 de ee 00 15 da 0c 17 00 fa e7 14 12
       20 17 7 6 -34 -18 0 21 -38 12 23 0 -6 -25 20 18
000060 26 30 f6 0d a5 10 f1 fa db fc d1 dd e5 81 09 09
       38 48 -10 13 -91 16 -15 -6 -37 -4 -47 -35 -27 -127 9 9
000070 0c 38 cf 00 14 df 10 b5 17 e8 e2 d5 f6 ff 0f d0
       12 56 -49 0 20 -33 16 -75 23 -24 -30 -43 -10 -1 15 -48
000080 ff 0b 0b f4 c9 0f f5 01 db 2a e1 ee d4 a9 31 09
       -1 11 11 -12 -55 15 -11 1 -37 42 -31 -18 -44 -87 49 9
000090 02 1e c8 f4 10 e0 25 da 04 fe d5 ee ff f8 f7 d0
       2 30 -56 -12 16 -32 37 -38 4 -2 -43 -18 -1 -8 -9 -48
0000a0 e9 24 f1 ff e6 0c 0a 01 ef 18 db e8 cc 90 19 f8
       -23 36 -15 -1 -26 12 10 1 -17 24 -37 -24 -52 -112 25 -8
0000b0 12 23 d5 0b 21 fd 1b c0 1f e4 f5 d7 06 05 0f b8
       18 35 -43 11 33 -3 27 -64 31 -28 -11 -41 6 5 15 -72
0000c0 0a e2 db be f9 04 97 af 27 c9 b5 c7 06 e3 da 9f
       10 -30 -37 -66 -7 4 -105 -81 39 -55 -75 -57 6 -29 -38 -97
0000d0 f7 c1 04 af c5 1b c7 f1 d7 a1 a0 12 0f 66 cb fe
       -9 -63 4 -81 -59 27 -57 -15 -41 -95 -96 18 15 102 -53 -2
0000e0 e3 e0 de ad f9 ff 95 af 0d ca ad c1 f0 e9 b9 b1
       -29 -32 -34 -83 -7 -1 -107 -81 13 -54 -83 -63 -16 -23 -71 -79
0000f0 d7 b9 f4 d2 d2 e6 ad e4 05 ab af 19 d3 4f b8 f9
       -41 -71 -12 -46 -46 -26 -83 -28 5 -85 -81 25 -45 79 -72 -7

VoiceClassifierCNN/conv1/Conv2D i1 [32, 3, 3, 1]
000000 8a fd 7f c7 0b 34 61 db b7 eb ed c4 ed da 81 0e
       -118 -3 127 -57 11 52 97 -37 -73 -21 -19 -60 -19 -38 -127 14
000010 e5 d9 81 9b dc a9 9f f5 cf b6 1d 5c 29 04 ed b7
       -27 -39 -127 -101 -36 -87 -97 -11 -49 -74 29 92 41 4 -19 -73
000020 81 43 02 b9 53 1c 04 7f 40 5b ec ed c5 9c cf ad
       -127 67 2 -71 83 28 4 127 64 91 -20 -19 -59 -100 -49 -83
000030 e1 96 81 fd 06 1e 7f 44 55 d0 ce b5 0b 08 f4 7a
       -31 -106 -127 -3 6 30 127 68 85 -48 -50 -75 11 8 -12 122
000040 7f 3d c6 b3 e4 13 2c f4 de 46 20 4c 34 17 7f f2
       127 61 -58 -77 -28 19 44 -12 -34 70 32 76 52 23 127 -14
000050 cf ef b8 db d1 8a 9c d5 81 bf 7f 56 31 01 e6 d7
       -49 -17 -72 -37 -47 -118 -100 -43 -127 -65 127 86 49 1 -26 -41
000060 73 4e ff f5 e3 e2 19 0a ee a7 ae 81 5f 1f 97 6d
       115 78 -1 -11 -29 -30 25 10 -18 -89 -82 -127 95 31 -105 109
000070 14 af 7f f6 bb e1 0f 14 7d 7f 77 93 ca ac 7b 7f
       20 -81 127 -10 -69 -31 15 20 125 127 119 -109 -54 -84 123 127
000080 3f ac 05 3d ca d0 c9 37 4d 77 8f 85 81 eb 28 2c
       63 -84 5 61 -54 -48 -55 55 77 119 -113 -123 -127 -21 40 44
000090 55 7f 2e ea 65 1a e2 a4 e1 08 18 13 ea 08 ed ba
       85 127 46 -22 101 26 -30 -92 -31 8 24 19 -22 8 -19 -70
0000a0 a1 81 27 2f fc 41 7f f8 dc ec fe f9 06 f2 8d 8c
       -95 -127 39 47 -4 65 127 -8 -36 -20 -2 -7 6 -14 -115 -116
0000b0 81 02 0a 01 c5 d6 81 b9 d2 ab ef e7 b1 f3 7f b7
       -127 2 10 1 -59 -42 -127 -71 -46 -85 -17 -25 -79 -13 127 -73
0000c0 2e d6 3d e6 f2 1d f0 13 18 08 e7 07 c8 81 ba db
       46 -42 61 -26 -14 29 -16 19 24 8 -25 7 -56 -127 -70 -37
0000d0 d2 d2 5a 65 7f 9b 93 cb 9b c5 8b ab 8e 81 08 14
       -46 -46 90 101 127 -101 -109 -53 -101 -59 -117 -85 -114 -127 8 20
0000e0 ec 7f 4d 61 e0 c0 ca 58 35 16 da d5 d8 2c 1d 16
       -20 127 77 97 -32 -64 -54 88 53 22 -38 -43 -40 44 29 22
0000f0 aa 89 81 7f bc d4 4f dd 3d 00 75 45 51 24 85 4d
       -86 -119 -127 127 -68 -44 79 -35 61 0 117 69 81 36 -123 77
